saved/bert.pt (torch, 286588 bytes, 35 tensors)

embed.lin.weight f4 [72, 15]
00000000: a5f4 e73d 8bd5 653e ca0a 0a3e 56c3 0a3e
00000010: b578 6e3e 65d0 27be 497b 823e a817 f5bd
00000020: 3a75 57be d007 323c 1eca 24be 455e a1bd
00000030: b903 293e a31b c5bd 1275 8e3c fddd 81bb
00000040: d288 66be ad8c 923d 592b 7b3e 7ffa 343e
00000050: f093 c23c f3c3 803e 88af 5e3e 5bfe 5eba
00000060: c34f 223e d766 f7bd a927 14be 006d 04be
00000070: 779c 47bd 9d64 32be 04ac 263d cc77 213e
00000080: 7b53 5ebd 9572 173d 4cc9 8b3d 3354 29be
00000090: 2b26 73be a0d7 703e e033 2ebc 99bc 1ebd
000000a0: 5599 633e 4f33 bf3d ab7d 79bd 0d0e 7a3c
000000b0: f4f3 003e b314 7fbd dcdb 32bb f1f3 ed3d
000000c0: ea77 253e c741 66be 57fb 0f3d 3b19 7ebe
000000d0: e417 033e ef87 193e 7c2e 12bd 8b9b f83c
000000e0: ef84 b2bd 103d 0d3e 4a20 a8bd 5f50 56be
000000f0: 8c61 5ebe 2ca1 f93d 1b15 583e 1c4a 5ebd
00000100: b87b 33be 88a4 f6bd fa2b 26bd 4f4d 543e
00000110: a38e e8bd 1e4b 72be 4db9 6ebe cb26 2c3e
00000120: 5bb0 083e e6b2 5abd 1c5e 003e 78a8 9f3d
00000130: f60d 893e a7e4 9e3d 8bd2 ecbd 4069 aabc
00000140: a531 15be 9ff3 64be 4821 2dba 2ac0 5d3e
00000150: 26b7 7ebd 3452 333d 40d8 703d 59c2 2ebe
00000160: b862 f83c ae05 723e 2f9b ce3d 0ce8 843e
00000170: 70c6 0e3e ac79 803e 0b58 4bbe 0dca 893d
00000180: 5bf5 b43d 68dd 14bd e8bc ccbd 9fc5 d8bd
00000190: 246a 1abe 6b71 50be 5e40 58be 70b6 9cbd
000001a0: a3c1 6dbd cf5a 1c3e 9bda 9f3d 4ec6 fabd
000001b0: a3a0 6f3e 80c7 6b3e 08b4 d53d a585 043d
000001c0: d2ab 203e 09e0 033e 1eb7 3ebe 1069 703d
000001d0: d0ce 623e 790d 673e 822f 873e 88ba 4dbd
000001e0: bd41 a23d e869 c63d 9b11 173e f546 31be
000001f0: d43c 823d b7e8 383e 4011 2a3e e97e 62ba
00000200: 6d21 b83d aa89 563d bad1 3ebd 45d7 93bd
00000210: 304a 893a 09be d1bd 233f 3bbe 2ec2 7a3d
00000220: fab4 67be 5b1d 073e 7aeb 08bc a386 103e
00000230: 2bb3 bcbd 8147 e7bd a877 38be 93f5 61bd
00000240: 4c42 313e 3873 203d e35e b63d cb3a c3bd
00000250: 3d6e 113e 9c03 503e ffe5 553d ba12 163e
00000260: 233e 47be f563 05be 284c 10bd 2fa4 533e
00000270: 72f8 10be e1a2 40be 1bce 0f3d b386 e43d
00000280: 61ed 30bc 39f9 21bd f6b4 1e3e 478e c93d
00000290: 17e1 b0bc c50c 0bbe 0480 de3d 4304 5c3e
000002a0: bd3f 513e 5c2a 33be 555c 4dbd 3f80 6f3e
000002b0: 4106 a93d 3c69 253e 5d41 37be 581e 123e
000002c0: a5ea 363e 6b9c 32be d670 783e 738c 9dbd
000002d0: 4305 f13d d11f 533e 29ac fdbd 32de d23d
000002e0: ed59 2dbd 236e 05be 3f6b 79be e96a 17be
000002f0: 29db 91bb c433 643e 09c4 babd 03c8 f5bd
00000300: 5d88 4b3e 7eb3 013e ad81 3e3c ca9f 203e
00000310: 18dc 4b3d 4f6b 803e f47d 543e 27fe 82be
00000320: eb92 853e 152c b83c 6fdb 493e 65fa 1dbd
00000330: 78f3 3d3d c54f 8bbd db12 71bd ef2d ec3d
00000340: 9b23 b2bd 4f98 823e 8b46 363e 9398 a9bd
00000350: 99d9 863d d07b 9c3d 97ea 423e 387f 28be
00000360: 666e 2c3e fc25 12be e5e2 583e 71e6 1bbd
00000370: 0361 a6bd 5339 49be fb4e 263e 8363 88be
00000380: 0120 9abd c8dc 813e ade8 9f3d f475 d6bd
00000390: e29c 6ebe 7b85 2a3d e6d0 493e caa8 04be
000003a0: d2c8 01be 36a3 0dbe ddf3 583c 38fb 6b3e
000003b0: 4fc2 33be a3a5 23be 09b4 08bd 6c50 343e
000003c0: 11b3 16be e262 003e 6e84 c53c 9921 733e
000003d0: 2761 813d 384b 723e 4945 e0bd bbc5 5fbe
000003e0: 31fa fa3d 27b2 54bc 76f9 48bd 4a74 0d3e
000003f0: 4458 b1bb 8129 31be d72f 3bbe 7c41 2d3e
0.11325959 0.22444741 0.13480678 0.13551077 0.23288234 -0.1638809 0.25484684 -0.11967403
-0.21040812 0.01086612 -0.16092727 -0.078793086 0.16505326 -0.09624412 0.017389808 -0.0039632306
-0.2251313 0.07155738 0.24528255 0.17673682 0.023752183 0.25149497 0.21746647 -0.000850653
0.15850739 -0.12080162 -0.14468254 -0.12932205 -0.0487332 -0.17421193 0.04069139 0.15768355
-0.054278832 0.03697451 0.06825504 -0.16536026 -0.23745029 0.23519754 -0.010632485 -0.03875408
0.2222646 0.09335958 -0.060910862 0.015262139 0.1259306 -0.0622756 -0.002729169 0.11618794
0.16159025 -0.2248603 0.035151806 -0.24814312 0.12802082 0.14993261 -0.035688862 0.030347606
-0.08716761 0.13792825 -0.08209284 -0.20929097 -0.21716899 0.12188944 0.21101801 -0.054269895
-0.17527664 -0.120431006 -0.040569283 0.20732616 -0.11355331 -0.23661467 -0.23312874 0.16811673
0.13348524 -0.053393267 0.125359 0.07795805 0.26768464 0.07758456 -0.115635954 -0.02080214
-0.14569719 -0.22358559 -0.00066043856 0.21655336 -0.062186383 0.043779567 0.058799982 -0.17066325
0.03032051 0.23634979 0.10088193 0.25958288 0.13942885 0.25092828 -0.19857804 0.06727991
0.0883586 -0.036343962 -0.099969685 -0.10584568 -0.15079552 -0.20355766 -0.21118304 -0.07651985
-0.058045994 0.15269016 0.078053676 -0.12244855 0.23401122 0.23025322 0.10434729 0.032354016
0.15690544 0.12878431 -0.18624541 0.058693945 0.22149205 0.22563733 0.26403433 -0.05022672
0.07922695 0.09688169 0.1475281 -0.17312224 0.06359258 0.18057524 0.16608143 -0.0008640127
0.089907505 0.05237738 -0.04658673 -0.07218794 0.001047438 -0.102413245 -0.18285803 0.06122034
-0.22627631 0.13194792 -0.008356923 0.1411386 -0.09213861 -0.11292935 -0.18014395 -0.05516584
0.17310447 0.03917238 0.08904817 -0.09532698 0.14202209 0.20313877 0.052221294 0.14655581
-0.19457297 -0.13026412 -0.03522888 0.206681 -0.14157274 -0.18812133 0.035108667 0.11158504
-0.010798783 -0.039544318 0.15498719 0.098415904 -0.021591706 -0.1357909 0.10864261 0.21486
0.2043447 -0.17496628 -0.050136883 0.23388766 0.08253146 0.16153425 -0.17896028 0.14269388
0.17862947 -0.17442481 0.24261793 -0.07692804 0.11768582 0.20617606 -0.123863526 0.10296287
-0.042322088 -0.13030295 -0.24357317 -0.14786877 -0.0044511748 0.22285372 -0.09119422 -0.1200104
0.19876237 0.12666127 0.011627597 0.15685955 0.049770445 0.2508187 0.20751172 -0.25584528
0.26088652 0.022481957 0.19712614 -0.038568873 0.046374768 -0.06802324 -0.058855873 0.11532199
-0.086981975 0.25506827 0.17800348 -0.08281054 0.06584472 0.07640803 0.19034801 -0.1645478
0.16838989 -0.14272302 0.21180303 -0.038061563 -0.08123972 -0.19650774 0.16241066 -0.2663842
-0.075256355 0.25363755 0.07808051 -0.104717165 -0.23302034 0.041631203 0.19708595 -0.12955013
-0.12674263 -0.13831791 0.013241735 0.23045051 -0.17554592 -0.15981154 -0.03337482 0.17608804
-0.14716746 0.12537721 0.024110999 0.23743285 0.063173585 0.23661506 -0.10950715 -0.21852772
0.122547515 -0.012981928 -0.04906603 0.13813892 -0.0054121334 -0.17300989 -0.18279968 0.16919512

embed.lin.bias f4 [72]
00000000: 6cf7 87bd b3c9 99bc f5f1 72be b9c3 533e
00000010: eaab 33be 6d8e b73d cba9 0c3e 913e 423e
00000020: 5058 4e3e dfab ca3d 366b b53d 4281 dcbc
00000030: 9d9f 563d 7a2e 6d3e 0579 063e da3b ccbc
00000040: 0183 5abe 6577 a43d f03e 313e d17b 613e
00000050: 2200 793e c4b5 143e 585c 183e 86ac bcbd
00000060: f4dc 383e bda7 04be 1680 40bd 544b 233e
00000070: f67f 4c3e 6fef 0e3e 64f9 7c3d 5923 27be
00000080: e40f 23bc bc3e b53d 625d af3d e642 753e
00000090: 5309 94bc 446f 49be e386 5abe 8b64 6fbe
000000a0: 03d7 37be ef43 dd3d a46e 28be 741f 0a3e
000000b0: 9416 073e cec8 63be 7a3a 253e 88fa 9ebd
000000c0: a440 2fbe ade6 bebd a9f0 263c 3f0f 73be
000000d0: 3c0d 32be af4a 7fbe b819 723e 529e 523e
000000e0: 0f27 73bd 0303 5d3e 106f 81bd 94e0 693e
000000f0: de1e bbbd a634 423e de4b 50be a02f 08be
00000100: 57e3 a4bd 477e 863e fa8e ca3d 1cb2 453e
00000110: aeda 3c3e da54 34bd 4e6f 343e 0b2b b2bd
-0.06638989 -0.018772935 -0.23725112 0.20680131 -0.17546049 0.089627124 0.13736646 0.1896918
0.20150876 0.09896063 0.088583395 -0.026917104 0.052398313 0.2316226 0.13132103 -0.024930883
-0.21339037 0.08030585 0.17309165 0.22019888 0.24316457 0.14522463 0.14878976 -0.09212594
0.18053037 -0.12954612 -0.046997152 0.15946704 0.19970688 0.13958524 0.061761275 -0.16322078
-0.009952519 0.08849856 0.08562733 0.23951301 -0.018070852 -0.1967135 -0.21340518 -0.23378198
-0.17953114 0.10803973 -0.16448456 0.13488561 0.13192207 -0.2224457 0.16135588 -0.07762629
-0.17114502 -0.09321342 0.010189214 -0.23736285 -0.17387861 -0.24930833 0.23642623 0.20568207
-0.05936342 0.2158318 -0.063200116 0.22839576 -0.09136747 0.18965396 -0.20341441 -0.13299417
-0.08051174 0.26268217 0.09890552 0.19306225 0.18442795 -0.044026233 0.17620584 -0.08699616

embed.pos_embed.weight f4 [100, 72]
00000000: 17f3 bfbf 3b58 7abf a741 823e 8c18 1abd
00000010: 921a 7c3f 718d a1be 8d1a 5fbf 7ae7 8a3f
00000020: 7664 34c0 dee7 0940 429e afbe a24d 03c0
00000030: 4dfa 5d3f 9597 bcbf 8fe5 99bf a5c1 a83f
00000040: 9628 223e 3892 93bf 9643 2bbe 5906 9b3f
00000050: 90b4 4c3f a081 c7bf 92fe 04c0 fdd1 86be
00000060: 611d 24be cde8 c8bf 721a 8e3f 7d89 ce3f
00000070: a4f6 b5bb d863 a4be cfcd 26be 182f 1bbf
00000080: 2a19 953f c5f5 0dbe bd25 b8bf 7435 8ebe
00000090: 9f66 09be 35f8 82bf eae4 f03e d674 683d
000000a0: 06bf 573f 083e 37bf 0b87 77bf 9b4f d0bf
000000b0: 5de8 c03f 80c8 893f 4303 b63e 86ac 38be
000000c0: 6430 04be 4e90 4fbf 7842 07bf 6732 923f
000000d0: 637c babf c182 1c3f 9d5e bbbf a440 50bf
000000e0: c1f3 e0bf 8b7f a8be c078 9ebf 12d6 18bf
000000f0: 4dc5 2b3f 066f d33f 5440 773e 8088 b83f
00000100: 05b4 163f 2281 303f 54aa 0c3e dad8 7abf
00000110: 5d8b 27c0 2b86 603f fc47 063e 3d4f d2bf
00000120: 27c4 733f 892c 61bd 1e27 b8bd 894b a4bf
00000130: bbfe 453f 5afc bdbe 1487 c8be 5169 263f
00000140: 3a44 9a3f c0bf 593f fa83 0e3e fcde f63b
00000150: 804b 99bf 741e 5ebf 8ae7 b93f d8bd 193f
00000160: 79ec 9abf a3ae 06be 26f6 823f e475 003f
00000170: c200 7bbf f1a7 ef3e 25af 5ebf d34b 8f3f
00000180: ecb9 c43e 8225 5dbf 2c40 41bf 19fd 86be
00000190: 705c b6bf f3bc 39bf 84cc 163e 9e2e 903f
000001a0: 2f8d b33e ecab eebd b991 25be e747 91bf
000001b0: be0d 823e 5ab4 f4bc e325 b83f 9647 06bf
000001c0: 6a8d 913f 0cf7 51bf 3a25 863e 6bff 693f
000001d0: f2d7 22bf 090f ff3e 8312 05be 6450 723d
000001e0: 6b9b 1ebe eb2c 2dc0 54b5 e73d 7846 bdbe
000001f0: e7ae 18bd 6520 9f3f fc73 b63d 8130 b23e
00000200: ec3a 0b40 3a01 be3e 97d9 96be 8994 0b3e
00000210: b75d 1c3f a7d7 8c3f c760 94bd 5c3c dabe
00000220: 5351 0e40 881f 9abe a02a e33e edd0 3cbe
00000230: 4e0d 49bf 829b 553f d982 f93e a540 95bf
00000240: 3c14 9f3f 11d4 b23e 3edd e8bf 18fa 2d3e
00000250: f4f4 a9bf 9559 2b3f 95ef b43e d5f9 2cbf
00000260: 6904 4f3f 4925 903e d4ee 883f b724 9abe
00000270: c348 cbbf d0d5 dfbe 9c1d 0a3f 97aa 50bf
00000280: 5e98 49bf 1fbc 2bbf 0b46 433e 3fd7 b53e
00000290: 71ac 05bf b320 f93f fe1d 683f 4db7 59bf
000002a0: 3cdd c3bd 1a98 273f 744b 8c3d 2ec0 13bf
000002b0: 6feb 2040 58c8 03bf 678f 483f 94b6 18bf
000002c0: da1f 823d b75f 393f 2e60 0fbf 2580 053f
000002d0: 7a52 8bbe 5b00 8f3f 601e d1be ffba c43f
000002e0: 3831 2d3f e6a1 1240 bae1 e63f ece2 43be
000002f0: f6dd 9abe 3665 223f 5dae c33d de75 f33f
00000300: c228 e5bf 6ca4 0e3f 2674 9e3f e579 533e
00000310: 1fae 3d3e 2c6a 8bbe f9f0 afbf 673e cd3f
00000320: dccb b83e 18ee 11bc 34d0 1a3e 261a 5fbf
00000330: 192c 8a3e 4f9b a8bf 83f5 6a3f 47a6 a1be
00000340: 1e8f 5abb 830f 203f 7283 c7bf 5920 4d3f
00000350: a774 92bf e6c1 1040 3b72 873f 9bb2 c2bd
00000360: 50fa 823f 4f45 743f 71ed c6bf eab7 a8bf
00000370: 5ff6 393e 3bb1 c33f 0072 91bf c2b0 0d40
00000380: 15a2 4c3f 5d45 2e3f feb0 933f 1344 94bf
00000390: 22c6 abbf d69f 0640 b481 0b3f a1df f4bf
000003a0: 850b 5d3e 35e9 093f 25a3 2f3f 34ad 393f
000003b0: a4c8 1cbf 6179 05c0 e267 ed3f df80 b6bf
000003c0: 211d 14be 4b69 ccbe e0e1 b5be 476a 0ebe
000003d0: 09ce 06bf 20c1 003e dbd8 a73f 9228 a63f
000003e0: dbb2 f23e d62e 273f ef42 4d3f 812c 823f
000003f0: 9d0f 2fc0 99a0 c6bf fe81 083f 5e42 a93e
-1.499606 -0.9779088 0.25440714 -0.037621066 0.98478043 -0.31553224 -0.8714989 1.0851891
-2.8186316 2.154777 -0.3430043 -2.0516133 0.86710054 -1.4733759 -1.2023181 1.3184096
0.15835795 -1.1528997 -0.16725 1.2111312 0.79963017 -1.5586433 -2.0780377 -0.26332083
-0.16026832 -1.5696045 1.110182 1.6135708 -0.0055530835 -0.32107425 -0.16289447 -0.60618734
1.1648304 -0.13863285 -1.4386517 -0.27775156 -0.13418053 -1.0231997 0.47049648 0.05675205
0.84275854 -0.7157903 -0.96690434 -1.6274294 1.5070912 1.0764313 0.35549363 -0.18034562
-0.12909085 -0.81079566 -0.528358 1.1421632 -1.456921 0.61137015 -1.4638249 -0.81348634
-1.7574388 -0.32909808 -1.23806 -0.59701645 0.6709793 1.6518257 0.24145633 1.4416656
0.5886844 0.6894704 0.1373685 -0.9798714 -2.617881 0.87704724 0.13113397 -1.6430432
0.9522118 -0.054974113 -0.08991836 -1.2835552 0.7734181 -0.3710659 -0.39165556 0.6500445
1.2052071 0.8505821 0.13917533 0.007533906 -1.1976166 -0.8676522 1.4523785 0.60055304
-1.2103416 -0.13152556 1.0231369 0.50179887 -0.9804803 0.46807817 -0.86986 1.1195015
0.38423097 -0.8638536 -0.75488544 -0.26364973 -1.424696 -0.7255394 0.14726454 1.1264226
0.35068652 -0.11653885 -0.1616887 -1.1350068 0.2540111 -0.029871155 1.4386562 -0.5245298
1.1371281 -0.8201759 0.26200277 0.9140536 -0.63610756 0.49816158 -0.12995343 0.059158698
-0.15488975 -2.7058666 0.113138825 -0.36967826 -0.037276175 1.2431761 0.08908841 0.3480263
2.1754713 0.3711031 -0.29462883 0.1363088 0.610805 1.1003312 -0.07245021 -0.42624176
2.2237136 -0.3010218 0.44368458 -0.18439074 -0.78535926 0.8344041 0.4873264 -1.1660353
1.242805 0.3492742 -1.8192518 0.16989934 -1.3277879 0.66933566 0.35339037 -0.67568713
0.80866104 0.28153446 1.0697885 -0.30106136 -1.588158 -0.43717813 0.5395143 -0.815103
-0.7874812 -0.67083925 0.19069688 0.35515782 -0.5221625 1.9463104 0.90670764 -0.8504532
-0.095636815 0.65466464 0.06850329 -0.5771512 2.5143697 -0.51477575 0.78343815 -0.5965359
0.063537315 0.72411674 -0.56006134 0.5214866 -0.27211362 1.1171983 -0.40843487 1.5369567
0.67653227 2.2911315 1.8037636 -0.19129533 -0.30247468 0.63435686 0.095547415 1.9020345
-1.7903063 0.5571964 1.2379196 0.20651968 0.18523453 -0.2722944 -1.3745414 1.6034669
0.36093032 -0.008906864 0.15118486 -0.87149274 0.2698677 -1.3172396 0.9178087 -0.31572172
-0.0033349465 0.6252367 -1.5586989 0.80127484 -1.144185 2.2618346 1.0581735 -0.095067225
1.0232639 0.95418257 -1.5541211 -1.3181126 0.1816039 1.5288461 -1.1362915 2.2139134
0.7993482 0.6807459 1.1538389 -1.1583275 -1.341984 2.1035056 0.54494786 -1.9130746
0.21586426 0.5387147 0.68608314 0.7252991 -0.61243653 -2.0855334 1.8547328 -1.4258078
-0.14464237 -0.39924082 -0.3552389 -0.13907729 -0.52658135 0.12573671 1.3113054 1.2981131
0.4740208 0.6530584 0.8018026 1.0169832 -2.735328 -1.551776 0.5332335 0.33058447

embed.norm.gamma f4 [72]
00000000: 7649 813f f2ff 803f 7b52 7f3f 69e3 7e3f
00000010: 72e4 7f3f 365a 813f cd88 813f c003 803f
00000020: 6f73 7d3f 38d5 803f 8d63 813f 5d6f 7e3f
00000030: a182 813f 3f93 813f 7b16 813f 0a39 813f
00000040: 854e 813f 40ef 803f 516f 7e3f 7909 813f
00000050: f715 7d3f 145d 813f b21e 7d3f 664f 7d3f
00000060: b0d5 803f 9d06 7e3f 1935 7d3f e344 803f
00000070: f65c 813f 9bd7 7d3f fa44 813f 2b47 813f
00000080: dd58 7e3f 11fe 7c3f 085d 7f3f 2048 7d3f
00000090: 1359 7d3f 5b78 803f 8050 813f 079d 7d3f
000000a0: 261a 7f3f 967b 7d3f 498e 813f d957 813f
000000b0: 4279 813f 0168 7f3f 5f26 7f3f 9226 813f
000000c0: 462f 7d3f d334 7d3f 139d 7e3f 9e27 803f
000000d0: be43 7d3f aa51 813f fe08 7d3f 520f 813f
000000e0: 046c 7d3f 928a 7f3f 8925 7f3f 3e21 7d3f
000000f0: 223f 7e3f e749 813f 3a5b 803f 08ff 803f
00000100: b898 803f 7dcb 7e3f b26d 7e3f acd1 803f
00000110: 7468 813f d1a3 803f 710f 803f c46a 813f
1.0100543 1.0078108 0.9973523 0.9956575 0.99957955 1.0105655 1.0119873 1.0001144
0.9900426 1.0065069 1.0108505 0.99388677 1.011799 1.0123061 1.0084985 1.0095532
1.0102087 1.0073013 0.99388605 1.0081016 0.9886164 1.010653 0.9887496 0.9894928
1.0065212 0.9922884 0.98909146 1.0021023 1.0106494 0.9915711 1.0099175 1.0099844
0.99354345 0.98825175 0.9975133 0.9893818 0.9896404 1.003673 1.0102692 0.9906773
0.99649274 0.990167 1.0121547 1.0104934 1.011513 0.9976807 0.99667925 1.0089896
0.9890026 0.9890873 0.99458426 1.001209 0.9893149 1.0103047 0.98841846 1.00828
0.98992944 0.99820817 0.9966665 0.9887885 0.99315083 1.0100678 1.002784 1.0077829
1.0046606 0.9952925 0.9938613 1.0063987 1.0110002 1.0049993 1.0004712 1.0110707

embed.norm.beta f4 [72]
00000000: 0e4f fc3b 8d8b 1d3c 5bce afbb 3105 19bc
00000010: b94c 0ebc 994e 1ebb 1a58 16bc 7d8f cfbb
00000020: 939a 893b 93c0 fdbb b7b3 9dbb 6709 323c
00000030: c71a 13bc 0a14 29bb 100a 603b e523 603a
00000040: d114 eb3b d7da 003c 680b 00bc 4a57 a33b
00000050: 3a0e 08bc 443d c5bb 65ba 21bc 7b41 03bc
00000060: 4721 17ba 98ba f8ba ee25 9aba 7d5f 06bc
00000070: a18e e139 f6c1 9e3b ea35 d6bb 17dd 383c
00000080: 7ee0 33bc 45cc bfbb 73b4 15bc 1d0f d2bb
00000090: 267d cd3b ffee 193c 0684 acbb 3c12 72ba
000000a0: a705 1a3c 78e2 b5bb 576d 2c3c 762d 873a
000000b0: 81fa 0f3c 711f 3e3b 4747 0ebc 6bbb 043b
000000c0: 826d 1d3c 9c87 273c 0e14 333c 5823 f13b
000000d0: 1aac 3cbb 7431 f4bb 7189 42bc fe99 6f3b
000000e0: c5f5 c43b 4545 27bc c2a1 263c c25d 153c
000000f0: 14c9 d43b 03ef 45bc dc3d cbba 5081 103c
00000100: c6d5 0d3b d879 233c 383c d2bb dffb 303c
00000110: 7641 25bc 9cd8 e33b 797f 9ebb 8622 ffbb
0.0076998537 0.009615791 -0.0053651757 -0.009339617 -0.008685284 -0.0024155735 -0.0091762785 -0.006334244
0.004199335 -0.007743904 -0.0048126834 0.0108664995 -0.008978552 -0.0025799298 0.0034185685 0.00085502706
0.0071741124 0.0078646755 -0.007815219 0.004984771 -0.008304173 -0.0060192663 -0.0098711 -0.008011217
-0.00057651516 -0.0018976508 -0.0011760572 -0.008201477 0.0004302161 0.0048448993 -0.006537189 0.011283181
-0.010978816 -0.0058532082 -0.009137261 -0.006410493 0.0062710224 0.00939536 -0.005264762 -0.00092342845
0.009400762 -0.005550679 0.0105241155 0.0010313231 0.008787752 0.002901044 -0.008683986 0.0020253311
0.009608628 0.010225203 0.010930074 0.0073589496 -0.0028789104 -0.0074521843 -0.011873589 0.0036560292
0.0060107433 -0.010209386 0.010170402 0.009116592 0.006493697 -0.012080911 -0.0015506106 0.008819893
0.0021642311 0.00997778 -0.00641587 0.010802238 -0.010086408 0.006953312 -0.0048369733 -0.007786098

attn.proj_q.weight f4 [72, 72]
00000000: 8b23 e4bd 09b6 9ebc 4b0d df3d a13a 9abd
00000010: 0b46 5e3c 090e 8ebd 8b29 84bd 038b cb3d
00000020: 84b3 d03c 7c5e ebbd 9278 463d ed58 e0bb
00000030: f0e5 0cbc 4789 b1bc c4ad bdbb 7dd9 943d
00000040: 52be 8bbc 0e90 cf3c 6c19 97bd cbff c43d
00000050: 7b25 183d f629 603d f5c2 663d 88c3 b3bd
00000060: 6c14 7c3d 9319 b3bc b781 5a3c a3a1 bc3c
00000070: 0d44 e4bb 64c2 fabc adb4 963b 81a7 c6bd
00000080: 2512 6a3d 6c74 673d 1650 9c39 56b2 1cbc
00000090: 5263 713d 0e5e e93d 2afc d0bd 145a 24bd
000000a0: f506 1d3d 2868 943c 68d9 e83d b27f a3bd
000000b0: fca2 653c 499a b93b 9bf9 0dbd 62e1 893d
000000c0: 6dc4 803d d874 a13d a392 21bd 15be 7e3d
000000d0: 5989 09bd f1d4 a5bd 0cf5 bdbd 5469 953d
000000e0: 9143 e53d 65f0 533c 276c cbbd 9a45 ab3d
000000f0: ba3e 773c 40ad 593c 2308 e63b dd5d 723c
00000100: e5c2 88bc a448 553d 3046 ac3d 339d fabd
00000110: 6b7e 993d 612a 5cbd 3760 343d 30c6 bf3d
00000120: 1688 09bc 97b9 54bc 9848 c93d 205e 2abd
00000130: 014f 3e3c ebd0 e3bd 97cb edbd e44e 983d
00000140: f1a6 3abd b5a1 b7bd 19c8 1d3d f5cc 65bd
00000150: 1418 2bbd 98e5 a4bd 74d3 ebbc 3df9 7a3c
00000160: e7f0 27bd 57f8 323d 645b 0f3a 3608 2bbd
00000170: 525d 90bd 685e cd3c d7f6 d43d 1a81 f4bc
00000180: a2b6 62bd 5977 c7bd abfe 653d c847 d5bd
00000190: 70f7 cebd aa8b 353d 28cf bebd 25ee 673d
000001a0: 002e aebd 71ed abbb 6f35 d2bd e726 293d
000001b0: 0a83 9e3d 8b5b 8dbd 927b 1d3d 812d 46bc
000001c0: 3423 373c 72aa 9f3d 3e33 bdbd cc84 c2bd
000001d0: 249c 0ebd effe 5e3d 5e7b a53d 640d 24bc
000001e0: 0289 4abc 5542 923d afb6 cc3d 1a95 ee3d
000001f0: 4344 e5bd 7217 86bb dfe6 c1bd c158 883c
00000200: 044e 963d 0d64 a83d adf6 b53a a3e1 9b3d
00000210: bece be3b 001f 99bd 8149 c0bd b39f 9bbd
00000220: 17df a53d fbcf e33d bae7 983d 7d35 7dbd
00000230: 5a2d 833d 6f88 d3bc e7e2 dd3c d690 d53c
00000240: 71c5 e83d 7bd0 1cbd 4d6d 62bc 5fce 613d
00000250: 2c5f 9ebd 75a7 e2bc 988c 50bd 7413 1d3d
00000260: 19af af3d 5776 093d 5bf2 8cbd c151 183c
00000270: 2f55 463c ce91 16bd e349 903d f6be 96bc
00000280: 3f9c 8abc 574e c8bd 8687 cb3d 5297 ddbd
00000290: 4d37 b83d dc07 bf3d be6a 92bd 8994 523d
000002a0: 420b a8bd edd9 ca3d fae9 c53b c434 87bd
000002b0: 555b 49bd 7fe4 bfba 9af9 95bd 925f da3d
000002c0: c918 49bd 5b75 aabc 472f d73d ec6a 54bd
000002d0: 2507 bebc 63f7 5f3a d191 a7bd 9844 6f3d
000002e0: 8b27 1b3d 077d e73c e200 aabd 067a 853d
000002f0: d799 813c a468 d5bd f9ad f6bb a734 953d
00000300: 4657 c33b 69bf c53d 8199 d13d fce3 12bd
00000310: f715 6abc 9964 c53d 925d c93d c529 fc3b
00000320: 9fd6 98bd b6d4 6dbd 3767 67bd 54b1 353d
00000330: 333e 6abd 416d 07bd c7c2 93bd 3e85 813d
00000340: 50ff af3d 0b24 af3d 74fc d53d ebae 8f3d
00000350: e905 99bd f074 763c 4498 00be 2689 82bd
00000360: 51cd e5bd 7006 c3bd b546 7f3d 1e6e d23d
00000370: 566a c33c 3e7a 51bd 3828 d33c 7a69 b83d
00000380: 079b 48bd f783 3b3c d4bc 293d 2651 253b
00000390: 0805 3f3d 5c82 bfbc d5e7 c5bd adf5 ed3d
000003a0: 0732 af3c 9b95 d83d d1c5 eb3d 8c9e debc
000003b0: 46ed 6d3d 3c0d 613d 6f38 76bd 5b18 3bbd
000003c0: 4b6b 3f3d 8a50 60bd 02b8 37bd 9ace 0e3c
000003d0: 2786 87bd af9c dc3b 4ad1 a23d f582 b93c
000003e0: 3afd 88bc 8c89 87bb 4bcb 37bd e9e0 d1bd
000003f0: ec99 193a cf38 173d 4093 a93d 8881 bc3d
-0.11139592 -0.01937391 0.10891207 -0.07530714 0.013566504 -0.06936271 -0.06453236 0.09938624
0.025476225 -0.11492631 0.04845483 -0.0068465383 -0.008599743 -0.021671904 -0.0057885367 0.07268045
-0.017058525 0.025337245 -0.07377896 0.09619101 0.03714512 0.054727517 0.05633827 -0.08777529
0.061542913 -0.02186278 0.0133365905 0.023026293 -0.00696612 -0.03061027 0.004599175 -0.096999176
0.05714621 0.056507513 0.00029814307 -0.009564003 0.05893261 0.11394893 -0.102043465 -0.040124968
0.038336713 0.018116072 0.11369592 -0.0798334 0.014015909 0.005664144 -0.03466187 0.067324415
0.06287465 0.07883614 -0.039446484 0.062192995 -0.03357825 -0.08097256 -0.092752546 0.0729548
0.11194528 0.0129357325 -0.09932738 0.08362885 0.015090639 0.013285935 0.007020013 0.014792887
-0.016694495 0.05207123 0.08411825 -0.122370146 0.074948154 -0.053751353 0.04403707 0.09363973
-0.008394262 -0.012983701 0.09828299 -0.04159367 0.011615516 -0.11123832 -0.11611097 0.07436922
-0.045569364 -0.0896639 0.038520906 -0.056103665 -0.04177101 -0.08051604 -0.028787352 0.015318212
-0.041001227 0.043693867 0.00054686354 -0.041755877 -0.070490494 0.02506943 0.103986435 -0.029846717
-0.055349953 -0.09739561 0.056151073 -0.10414082 -0.10105789 0.044322647 -0.09316856 0.056623597
-0.085048676 -0.005246811 -0.10264098 0.041296866 0.077398375 -0.06902226 0.038447924 -0.01209581
0.011177827 0.07796182 -0.09238289 -0.09497985 -0.034816876 0.054442342 0.08080171 -0.010012958
-0.012361767 0.07141558 0.09995782 0.116495326 -0.111946605 -0.0040921504 -0.09467863 0.016643884
0.07339099 0.08222208 0.0013882719 0.07611396 0.0058229854 -0.07476616 -0.0938902 -0.075988196
0.08099192 0.111236535 0.07466073 -0.06181859 0.064051345 -0.025821893 0.027085735 0.02607004
0.11365784 -0.03828476 -0.013820005 0.05512845 -0.07732996 -0.02766774 -0.05091533 0.03834863
0.08578319 0.033560123 -0.06882163 0.009296835 0.01210527 -0.036760144 0.07045343 -0.018401604
-0.016920207 -0.09780567 0.099379584 -0.10819878 0.08994923 0.09327671 -0.07149266 0.051411185
-0.08205272 0.09904847 0.006039855 -0.06601861 -0.049159367 -0.0014640241 -0.07322998 0.1066276
-0.049095903 -0.020807913 0.10507064 -0.05185978 -0.023196766 0.00085436384 -0.08182109 0.058415025
0.037879508 0.02825786 -0.0830095 0.06517415 0.015820427 -0.10420349 -0.0075280634 0.07285433
0.0059613315 0.09655649 0.10234357 -0.035861954 -0.014287463 0.09638328 0.098323 0.007695409
-0.07462811 -0.058064185 -0.056494918 0.044358566 -0.057188224 -0.033063177 -0.07214885 0.06324242
0.08593619 0.085517965 0.10448542 0.07015785 -0.074718304 0.0150425285 -0.12558085 -0.06373815
-0.112208016 -0.09522712 0.06232329 0.102749094 0.023854416 -0.05114197 0.025776014 0.09004493
-0.04897597 0.011445037 0.041439846 0.002522537 0.046635658 -0.02337759 -0.09663359 0.116191246
0.02138616 0.1057541 0.1151234 -0.02717521 0.05808761 0.054944262 -0.060112413 -0.045677524
0.046733182 -0.054764308 -0.044853218 0.00871625 -0.066173844 0.0067325453 0.07950075 0.022645453
-0.01672231 -0.00413627 -0.04487161 -0.10247976 0.0005859423 0.03691941 0.08280039 0.092043936

attn.proj_q.bias f4 [72]
00000000: dd2d 81bd d304 d13a 74d8 ac3b cfaa 83bd
00000010: 72d8 b2bd e77d 9d3d bcb0 34bc 8c1f 8fbd
00000020: fd3a d23d 25b6 a9bc a4eb 8dbd 219f 033d
00000030: 20ca 4fbd 0daa fe3d e36a 3cbd c0ab de3b
00000040: 7b06 443d 4b8c 9abc d83c bd3c 0da3 92bd
00000050: 17c1 4b3d 1888 a1ba f39a 483d d6d1 a03c
00000060: 0dfa 61bd 11e4 9fbd 5222 99bc 454c 23bd
00000070: 0778 35bd 496a ff3c 619f 7a3d ebc9 b7bd
00000080: 4572 f9b9 e97c dfbd 2048 6ebd f261 a5bd
00000090: d0f2 e83d 1f62 d2bd aea1 16bd b76e a53d
000000a0: fa82 c03d b30c 40bd 6813 913d 8427 14bd
000000b0: 12be 40bc 16f9 cc3c a014 2cbc b9dc d3bd
000000c0: 9cf8 90bd c67e 7ebd 4b23 4fbd 30a5 f33d
000000d0: c352 8dbd cbf8 ddbd 4aea ce3d cf0a f9bc
000000e0: d13c 31bd f9a7 30bd 7baf fd3d e3a1 babd
000000f0: c677 94bd 2bd2 533d 88ff 933d dcd4 133d
00000100: a4b6 e5bd 8a9e babd 2c17 97bd 0eb6 843d
00000110: 600c 343d 9f94 a2bd 236d 703c 470a e93a
-0.06307576 0.0015946872 0.0052748267 -0.064290635 -0.0873269 0.076900296 -0.011028465 -0.06988439
0.10265157 -0.020716736 -0.069297105 0.03213418 -0.05072987 0.12434778 -0.046000373 0.0067953765
0.047857743 -0.018865725 0.023100302 -0.07160006 0.04974469 -0.0012323884 0.048975896 0.019631308
-0.055170108 -0.07807172 -0.018693123 -0.03986766 -0.04430392 0.03117861 0.06118715 -0.0897406
-0.00047578118 -0.109124966 -0.058174253 -0.08075322 0.11374438 -0.10272621 -0.036775284 0.08077758
0.09399982 -0.04688711 0.070837796 -0.036170498 -0.011764066 0.025021117 -0.010502964 -0.10344834
-0.070786685 -0.06213262 -0.050570767 0.118967414 -0.06900551 -0.10838469 0.10103281 -0.030400662
-0.04327089 -0.04312894 0.12386986 -0.09112909 -0.072494075 0.051714104 0.07226473 0.03609167
-0.112164766 -0.0911227 -0.073774666 0.06480037 0.043957114 -0.079385035 0.014674458 0.0017779552

attn.proj_k.weight f4 [72, 72]
00000000: 200c b33b 48e1 763d 7092 003d ce45 58bd
00000010: 6d90 65bd c8f0 98bc 1454 943d b779 81bd
00000020: 15bb bc3d ee0f 3fbd 9c3c be3d 0941 3a3d
00000030: 5587 c1bb f079 943d 433c 963d 1005 ecbd
00000040: b730 9d3b 1e48 64bd 20b4 f73d aca1 9b3d
00000050: c169 8bbd 51b0 9c3d ddb3 1d3c f501 2e3d
00000060: e169 87bd d974 5dbd 8a40 dc3d 92ec e2bd
00000070: 3d29 823d 105b 3ebd a4c7 e03d 7931 04bd
00000080: 57fb 63bb 71b0 3ebc 97ea b3bd 0753 a33d
00000090: 6b5c 9d3d d4cf 01be a52a 973d 0e83 b7bd
000000a0: 557f bfbd 947c 42bd 7b3f 0fbd e7a9 dfbc
000000b0: 0a97 76bd 81ba 79bd 50e0 503d c7e0 e63c
000000c0: 530d 0ebd 1673 d5bc 34a2 513d bc34 a43d
000000d0: 5fbf 603c d796 dc3d 2448 b8bd ce71 d73b
000000e0: 9e2d 95bc 11b5 7a3b 7dd8 2d3d 1ced 31bd
000000f0: 370e 89bd e945 993d 1f5c 8abd 73fe d03d
00000100: bc54 cbbc de45 bebd 3df6 a3bc 0b22 763d
00000110: e7cf 873d 0dcd 30bb 6658 573d 92f2 023d
00000120: 26a8 c13b d791 1bbd d945 bd3d f85a 983c
00000130: 49de d73d 9f60 8c3b 2fac aebd 4f23 273d
00000140: 0cea b0bd f734 8f3d a065 85bd c497 263d
00000150: 947d 41bd da95 acbd f9dc 6ebd 84a0 253c
00000160: 79f2 7d3d e442 f8bd c3a8 47bd a602 bc3d
00000170: 791b 383d 29fe e33c 65bf 803c 7c5b 66bc
00000180: 6c18 b7bd 161c 2f3d fcdd 473c f28f 8abd
00000190: 4eb3 02be a4ae 8d3c 8582 c5bc 6461 a2bd
000001a0: dae9 6b3b f4d3 0abd a8c6 bdbc c3d7 853c
000001b0: 783d ffbb d8d9 0a3d 46cf 4b3d c4dd aa3c
000001c0: ee6a e8bd eea1 89bd ea42 bebd b6f9 bbbc
000001d0: 0a87 e9bc 72f4 eebc 7e74 983d 6e37 c53c
000001e0: 83ce b23d de59 d73d 48e6 97bd 939f c33c
000001f0: 0044 843d efce a7bd ef92 69bd 4525 dfbd
00000200: e68c 4ebd 51a4 c7bd 4424 743d 774b dd3d
00000210: 36b9 86bd 392f 853d 1f00 e4bd f82d a4bd
00000220: 374f 023d c594 a63d 781a c83d 12d7 ab3c
00000230: 2cda c53c 0df4 16bd b94e 78bd 555c 9fbd
00000240: 072f 90bd ddc6 d6bc 56e0 74bd f628 a3bd
00000250: 4e15 6ebd aa50 9a3c ba96 233d 1222 01be
00000260: c739 a43a 161b ab3d 9e33 f6bd 455f 71bd
00000270: a26b 883d 3194 5bbd d326 a73c 5fe7 42bd
00000280: 0894 8fbc 039a 91bd 182b 8ebd 5f1a af3d
00000290: 5648 a53c 88dd febd 0a2a 013d b011 ff3d
000002a0: 4968 df3d 4014 3c3b 971e 8a3c 5a01 1cbc
000002b0: 4628 50bd dff2 6a3c 6813 0dbd 5987 c0bd
000002c0: 5902 873d 0d72 68bd 4bde ee3d 0b67 bc3d
000002d0: 357c 65bc 3c7a 2c3c 65e1 a13d d6c5 a73d
000002e0: d135 613d 24f0 acbd 8dd3 2cbd d335 f23d
000002f0: e54e 13bd 7c4a 7cbd abd4 843d ca72 9abd
00000300: 27de e9bd 1a70 ae3d 1844 ecbc 9157 75bc
00000310: e23b 05bc 057c b93d aa0b 353d 1e85 0e3d
00000320: 2db1 db3c 5416 45bc 5d4f 113d 44e8 e33d
00000330: 680a 5a3d 6d15 12bd 9dba 893d ed78 d6bd
00000340: bf23 78bd 5fb0 da3d cf90 3c3c 0455 7e3d
00000350: 4a3b a6bd 6b7b 57bb 1890 1d3d a27a 583c
00000360: 3332 abbd 7ffc a8bd a651 2d3d d4fe 333d
00000370: ba64 c9bd 7267 6d3d 6e25 fa3d c73e 7dbd
00000380: e43d a33a 8d7c 22bc 05ae c6bd 2f0a c43d
00000390: 960f a6bd a57d 9bbd 5abc f8ba 07c5 a33b
000003a0: 3d4e 27bd 5181 f6bc 1446 4c3d 29ab 583d
000003b0: 0dd4 f83c 66cc e0bc 0527 bebd 5665 ff3c
000003c0: d137 9d3d 4af1 3cbd d777 76bc 8cd3 c53d
000003d0: 7c05 e3bc e659 9fbd 8da1 debc 5ab3 16bd
000003e0: ff0e a23d 449e 453c d701 b23d ecea a6bc
000003f0: d71d c6bd cbfc 263d 9722 013e 2b6a 043e
0.005464092 0.06027344 0.031389654 -0.052800946 -0.05604594 -0.018669501 0.07242599 -0.063220434
0.092153706 -0.04664605 0.09288904 0.04547218 -0.0059060254 0.0724982 0.07335713 -0.11524403
0.004797067 -0.05573284 0.12094903 0.07599196 -0.0680728 0.07650817 0.009625402 0.042482335
-0.06611992 -0.054066513 0.10754497 -0.110802785 0.06355522 -0.046473563 0.109755784 -0.032273743
-0.0034787261 -0.011638747 -0.08784979 0.079748206 0.07683643 -0.12676936 0.07381181 -0.089605436
-0.093504585 -0.04748209 -0.03497265 -0.027302695 -0.060202636 -0.06096888 0.05099517 0.028183354
-0.034680676 -0.026055854 0.05118008 0.08017871 0.013717501 0.10770958 -0.08998135 0.006574846
-0.018210229 0.0038254897 0.042442787 -0.043439016 -0.066921644 0.074840374 -0.06755852 0.10204782
-0.024820678 -0.0929067 -0.020014876 0.06009106 0.06631451 -0.0026977689 0.052574538 0.031969614
0.0059099374 -0.03798088 0.09241838 0.018598065 0.105404444 0.004283979 -0.08528935 0.040805157
-0.08638391 0.06992524 -0.06513524 0.04067208 -0.0472389 -0.084270194 -0.058316205 0.010109071
0.061998818 -0.121221334 -0.048744928 0.09180193 0.044948075 0.027831154 0.015716264 -0.0140598975
-0.08940205 0.042751394 0.012198921 -0.06765737 -0.12763712 0.01729519 -0.024110088 -0.07928732
0.003599754 -0.03389354 -0.023166016 0.016338235 -0.00778931 0.03389916 0.04975822 0.0208577
-0.1134852 -0.06720339 -0.092901066 -0.02294622 -0.028506774 -0.029169295 0.07444094 0.024074282
0.08730795 0.10515188 -0.074169695 0.023879802 0.064582825 -0.08193766 -0.057024892 -0.108957805
-0.05042734 -0.09748138 0.059604898 0.108054094 -0.06578295 0.06503148 -0.111328356 -0.0801658
0.031813826 0.08133844 0.097706735 0.020976577 0.024151884 -0.03685384 -0.06062195 -0.07781283
-0.0704022 -0.026217872 -0.059784256 -0.07966797 -0.058125786 0.018837292 0.039938666 -0.12610653
0.0012529426 0.083547756 -0.12021564 -0.058928747 0.06661154 -0.053608123 0.020404255 -0.047583934
-0.017526641 -0.071094535 -0.06941813 0.08549952 0.020176094 -0.124445975 0.031534232 0.124545455
0.10908563 0.0028698593 0.01686029 -0.009521807 -0.050819658 0.014340132 -0.034442335 -0.094008155
0.06592245 -0.056749392 0.11663493 0.091993414 -0.014006664 0.01052719 0.07904319 0.08192031
0.054982964 -0.08444241 -0.042193938 0.118266724 -0.03596391 -0.06159447 0.06485876 -0.075414255
-0.11419325 0.085174754 -0.028841063 -0.014974491 -0.008131953 0.09056858 0.044200577 0.03479492
0.026817882 -0.012029249 0.035476077 0.111282855 0.05323258 -0.035664964 0.06725047 -0.104722835
-0.060580965 0.10678171 0.011509134 0.062092796 -0.08116777 -0.003287996 0.038467497 0.013212832
-0.08359184 -0.08251285 0.042314194 0.043944195 -0.09833665 0.05795998 0.122141704 -0.061827447
0.0012454358 -0.0099173905 -0.0970116 0.09572255 -0.081084415 -0.07592324 -0.0018977032 0.0049978527
-0.0408461 -0.03009096 0.04987152 0.052897606 0.030374551 -0.027441215 -0.09284786 0.03117625
0.07676662 -0.04612855 -0.0150432205 0.0965949 -0.027712576 -0.07780819 -0.027176643 -0.036792137
0.079130165 0.012061659 0.08691757 -0.020375691 -0.0967366 0.040768426 0.12610851 0.12931125

attn.proj_k.bias f4 [72]
00000000: 4cc7 b7bc 1028 44bd 071f ad3b 7d72 89bd
00000010: a49c 673d 60fd 8bbd 96bc 043d 9287 e73d
00000020: 8a9f 6d3d 510b acbd 5a3f 423d 9d61 95bd
00000030: 3dc4 7ebd ef9e e6bd 3ba8 8ebd c2b0 38bd
00000040: c345 a8bd 0e88 8abd ba02 403d 6e2f 533d
00000050: 3876 bf3d b8c0 a83d 6285 f7bc 1d54 613d
00000060: 1b95 08bd b870 a53d d169 853d 7aa3 5b3c
00000070: aabe d4bd 7c71 3c3d fc3d c9bd 0661 d43d
00000080: 88fa 963a 3a20 00bd b905 d7bd 4066 b3bd
00000090: 9574 953d 85ef 7bbd 4435 5fbd a7be 073a
000000a0: a7ab 62bc 5fe2 47bb 8d93 a9bd 1f70 84bd
000000b0: 4bae b3bd ed91 d63d 0e07 ebbd d731 023d
000000c0: 383d 813d d919 15bd 56bb bbbd a710 e23c
000000d0: c3da 513d 712e d93d 900d 12bd 9042 15bc
000000e0: b62f 67bd 9b0d 67bd 8472 73bd e532 1cbd
000000f0: d1e7 cd3d 2086 edbd a826 7e3c e05e 66bd
00000100: a8ed 983d 1550 a5bb 599c 313d 88b0 ef3d
00000110: 60f9 8d3d c4a7 7d3c 31d9 c13d 1105 13bd
-0.0224339 -0.04788977 0.0052832398 -0.0671129 0.05654587 -0.06835437 0.032406412 0.11305155
0.058013476 -0.08400596 0.047423698 -0.07294009 -0.062198866 -0.11260783 -0.06965681 -0.045090444
-0.08216431 -0.067642316 0.0468776 0.051558904 0.0934872 0.08239883 -0.03021497 0.055011857
-0.033345323 0.0807814 0.065143235 0.013405675 -0.10387929 0.046006665 -0.09826276 0.10370068
0.0011518756 -0.031280734 -0.104991384 -0.08759737 0.07297627 -0.06150772 -0.054494157 0.0005178251
-0.01383487 -0.0030499918 -0.08280096 -0.06466698 -0.08773478 0.10477052 -0.11475955 0.031785812
0.06310505 -0.036401603 -0.09166591 0.027595831 0.051234018 0.10604561 -0.035657465 -0.009110108
-0.056441985 -0.05640946 -0.059435382 -0.038134474 0.10053981 -0.11597848 0.015512146 -0.056242824
0.07467204 -0.005044947 0.043361995 0.117035925 0.0693233 0.015481893 0.09465254 -0.035893504

attn.proj_v.weight f4 [72, 72]
00000000: 2ad0 34bd 11e9 87bd 7137 43bd 5123 983d
00000010: f381 173d 3d4a 573c 8fec 563c 9bb2 3abc
00000020: 92b0 bebd d7ab 903d 25be 58bd e427 25bd
00000030: 37b0 a7bd 7083 cf3d 874f a83d 201e ec3c
00000040: e366 bebd c8e0 7f3d 240b 4b3d 8ce9 ccbd
00000050: fe59 c53d e842 e93c f20d 2e3d e8f9 973c
00000060: 7918 84bc 392d 39bc 3973 d1bd f816 70bc
00000070: 3b25 383d 6c4b d33d f5c9 733d f776 34bd
00000080: 4a82 ddba 0dd4 fcbd 1d1b d0bd 306b 463d
00000090: 5bb0 4bbd 1e34 cdbd c2db c43c c382 a13b
000000a0: 9fea 253d 5c9b 8f3d 3899 ee3b 51ac aabd
000000b0: cdfb 6e3d 6595 a8bd a8a4 67ba 129e ad3a
000000c0: 55bd d53d ad5a ebbb b2b7 c13d fe1d 71bc
000000d0: 8176 023d 9fb8 b23d 1ce0 b83d 0f07 56bd
000000e0: adee b4bb 4b95 b1bd bc8a 093c 1d35 853c
000000f0: 3c58 9e3d 989d 333c 4b1c 403d 2768 8f3d
00000100: 4efc 423c efe4 a0bd af5b 10bd c185 94bd
00000110: e990 07bd 2874 a03d 80dc bcbd 60f9 e5bd
00000120: 72ac e83c 8785 f4bc 249d cfbd 859a 893d
00000130: 2f13 b03d b711 463d 6f49 9c3d b511 0e3d
00000140: 4529 ba3d f619 603d 68bc e9bb 94ad 1bbd
00000150: 6631 aebd 751e 113c 3bd3 a1bd 85d3 a13d
00000160: 04c1 d7bc 1187 083c 7f2b e33d de49 0a3d
00000170: 7551 8dbd a81f 1b3c 917d 0c3d 9252 43bb
00000180: dffe 86bc 7935 03bb dd44 94bd bdf2 bdbc
00000190: bec1 8abd d6a3 cabd 1cbd 033d 3b56 b83b
000001a0: 8ee5 e33c 9c81 183d c019 9abd 42bf 07bc
000001b0: 2379 e5bb f3ea 253d bc42 e9bb 9414 4fbc
000001c0: 6155 aebd f163 afbd 0f71 1b3d dfd5 e53c
000001d0: 0d5c 5dbd e542 883d 0ef4 13bd 8312 ef3d
000001e0: 05dc 92bd 2646 a53d c669 afbd f348 eebc
000001f0: baa7 c4bc f60f 63bc 4902 32bb 8385 55ba
00000200: bfb5 b2bd 931b 363c 3dcf 613d 3759 37bc
00000210: a8d4 193d 55b7 c3bd c915 df3a 4eb2 023e
00000220: 3278 4d3d b15c bcbd a01e 833d c073 003d
00000230: ef58 b0bd 54e5 c2bd 200b be3c a325 f5bd
00000240: 6859 b6bd 7135 cabd 1002 9c39 dba7 c53d
00000250: 444e ad3d fa9c f2bd 63c7 e33d 7142 693d
00000260: 8588 2abd 6a0b 323d 77c4 aa3d a456 abbd
00000270: 8210 debb 492a 49bd 538b 423b a7ca c93d
00000280: 77ee 16bd c50f ab3c 1367 463d f1f3 83bd
00000290: 3a37 b73d c868 ecbc 7b33 71bd 4ad0 833c
000002a0: dc4a 4dbd 295b 493d 7cce f13c 78d1 ecbc
000002b0: c23d 54bd 850e 51bd e48d cebd 0df9 603c
000002c0: f137 a63d f445 b4bd e25b 443d 22b6 ec3d
000002d0: 8c20 ce3d 6803 cabd 0745 f53b 9632 2abd
000002e0: ef67 b83d 603f 96bd 78c8 ac3d fb4e 02bd
000002f0: be37 43bd 6170 24bd 565c 613d 61e6 0dbd
00000300: 4908 1ebd 78b6 733d 14da 9dbd 4d15 73bd
00000310: c225 973d 74f6 cfbd 6229 d83d 8156 9cbb
00000320: 9c6f b4bd 8156 cbbd d784 49bd 3bfa d23d
00000330: 332b 663d b692 03bb ca05 a7bd db79 30bd
00000340: 40bf c3bd 9524 be3d 1625 ba3d c456 0b3c
00000350: 5814 4ebb 4241 5ebc 2d8f de3d ee87 a83d
00000360: f5c0 8f3c c7c0 f03d 0781 cabd 99d0 6abd
00000370: 5b9a bd3d 42f0 d6bc d44c ccbd 022c ce3d
00000380: 2156 413d fd37 2dbc 895b adbd fb89 e7bd
00000390: af05 6fbd 6c22 03be 574b df3d bd1b 093d
000003a0: 2532 953d 15c4 9bbc 63e9 a23c 7cea 21bd
000003b0: c354 8dbd d74e cabd 23e6 9dbd 4d67 b1bd
000003c0: 2948 c2bc 8df6 70bd 2b00 9dbb cbf1 2abd
000003d0: 46b1 ff3b c0b6 16bd 1721 abbc 7968 f03d
000003e0: b4fc 9dbd 8141 8dbd 18bb c9bc df72 e03d
000003f0: 8cf5 9b3d e491 6ebc e6e0 2abd 6610 a9bc
-0.044143833 -0.06636251 -0.047660295 0.07428611 0.036989164 0.013140258 0.013117923 -0.011395122
-0.09311022 0.07064026 -0.05291571 -0.040321246 -0.08187907 0.101324916 0.08218294 0.028822958
-0.09296968 0.062470227 0.04957117 -0.10005483 0.09636305 0.028474286 0.042493768 0.018551782
-0.01612495 -0.011302286 -0.10227055 -0.014653914 0.04495738 0.1031712 0.059518773 -0.044058766
-0.0016899791 -0.12345133 -0.101614214 0.048442066 -0.049728733 -0.10019706 0.02403057 0.004928918
0.040506955 0.07012054 0.0072814487 -0.08333648 0.058345605 -0.0823162 -0.00088364864 0.0013245961
0.10436503 -0.0071824403 0.09458865 -0.014716623 0.031851295 0.0872662 0.090271205 -0.052252825
-0.0055216164 -0.086710535 0.008394893 0.016260678 0.07731673 0.010962866 0.046901982 0.07002287
0.011900974 -0.078561656 -0.035243686 -0.07252074 -0.03309718 0.07834655 -0.092217445 -0.11229205
0.02840254 -0.029848827 -0.10137394 0.067189254 0.08597409 0.048356738 0.07631194 0.034684855
0.09089903 0.05471226 -0.0071330555 -0.038007334 -0.08505516 0.008857359 -0.07901617 0.07901672
-0.026337154 0.008332984 0.110922806 0.03376185 -0.06900302 0.009467997 0.034299437 -0.0029803854
-0.016478954 -0.0020020886 -0.07239697 -0.023187036 -0.06775235 -0.098945305 0.03216277 0.005625514
0.027819421 0.03723298 -0.07524443 -0.0082853455 -0.007002966 0.04050727 -0.007118551 -0.012639184
-0.085123785 -0.08563984 0.037949618 0.028056083 -0.054042865 0.06653384 -0.03612142 0.11673453
-0.07170872 0.080700204 -0.085650966 -0.02908752 -0.02400576 -0.013858786 -0.0027162007 -0.00081452
-0.087260716 0.011114973 0.05512928 -0.011190704 0.03755632 -0.09556452 0.0017020042 0.1276333
0.050163455 -0.09197367 0.06402326 0.031360388 -0.08610713 -0.09516397 0.023198664 -0.11970069
-0.08903772 -0.098734744 0.00029756175 0.096511565 0.084621936 -0.11846347 0.111220144 0.05694813
-0.0416341 0.043467917 0.08338254 -0.08366135 -0.00677687 -0.049112592 0.0029685094 0.09853106
-0.03684851 0.020881543 0.048438143 -0.064430125 0.089460805 -0.028858557 -0.058886986 0.01609053
-0.05012022 0.049159203 0.029517405 -0.028908476 -0.05181671 -0.051039238 -0.10085657 0.013731253
0.08116139 -0.08802405 0.04793919 0.115581766 0.100648016 -0.09863931 0.0074850353 -0.04155215
0.09004199 -0.073363066 0.08436674 -0.031813603 -0.04766058 -0.040146235 0.0550197 -0.034643535
-0.03858212 0.059500188 -0.07707611 -0.059346486 0.073802486 -0.10154429 0.10554768 -0.0047710543
-0.0881035 -0.09928609 -0.04919895 0.10301634 0.05619354 -0.002007646 -0.08155401 -0.04308496
-0.095579624 0.09284321 0.09089105 0.008504573 -0.0031445231 -0.013565363 0.10867152 0.082290515
0.017548064 0.11755519 -0.09887891 -0.05732784 0.092579566 -0.02623761 -0.09975591 0.100669876
0.04720128 -0.010572431 -0.084647246 -0.113056146 -0.05835503 -0.128061 0.10903042 0.03347372
0.07284955 -0.019014398 0.019886678 -0.039530262 -0.06900933 -0.09878319 -0.07709911 -0.08662281
-0.02371605 -0.05882888 -0.00479128 -0.041734498 0.007803115 -0.036795378 -0.020889802 0.117386766
-0.07714215 -0.068972595 -0.024625346 0.1095941 0.07615194 -0.01456115 -0.041718386 -0.020637702

attn.proj_v.bias f4 [72]
00000000: 377f 7bbd 86e0 9fbd 61cd aabd fe08 b3bd
00000010: f424 783c a1a0 5abd 2025 a0bd f1a7 86bc
00000020: e355 613d 8b62 17bc dc74 373d 2128 ad3c
00000030: 4644 49bd ef59 d63d 2a1a a1bc a71d 73bd
00000040: d8ce eebd bfd9 b9bd 6b57 363d dc38 a53c
00000050: aa3e c73d 62a0 09bd c965 c1bd 4f97 9cbd
00000060: c0d4 2fbc f2c1 d4bb 0b68 07bc 29e9 f93c
00000070: 6696 e5bc a3ff a63c ebbe 3f3d ba09 8e3d
00000080: 0214 db3d af3d c43d 752c 9ebd 15da 63bd
00000090: 1cc3 4cbd 7caa 06bd 433f be3c 281c 473d
000000a0: 68ff 9abc cac3 edbd 46e5 e6bd a54e aebd
000000b0: 1cb4 a23d 6aab b5bd b934 c0bd a5a4 063d
000000c0: 3a44 e7bd 25cc df3d 1bc6 cd3d 7b0d 993c
000000d0: cf6f 9bbd 22a5 07bc 872a 3b3d ff33 d7bc
000000e0: 7b10 b23d 5d60 48bd cced 93bd f854 8ebd
000000f0: 7ff0 453d a044 aebd f3ad 8abd 8f61 4bbd
00000100: d8a3 25bd 399d 92bc 089c a2bd 9c0d 01bd
00000110: 142c 243d 668e d6bd c94d b8bd 0c55 c43b
-0.06140062 -0.07806496 -0.08339954 -0.087419495 0.015145529 -0.053375844 -0.07819581 -0.016437503
0.05501355 -0.009239803 0.04478918 0.021137299 -0.049137376 0.10466372 -0.019665796 -0.05935445
-0.11660546 -0.09074735 0.044516962 0.020168714 0.09728749 -0.03360022 -0.09443242 -0.07646047
-0.010731876 -0.0064928466 -0.008264552 0.030506687 -0.028025817 0.020385569 0.046812933 0.06935449
0.106971756 0.09582078 -0.07723323 -0.0556279 -0.04999076 -0.03287743 0.023223525 0.048610836
-0.018920615 -0.116096094 -0.11274199 -0.08511094 0.079445094 -0.08870585 -0.09385056 0.03287186
-0.1129231 0.10927609 0.10047551 0.018683186 -0.07589685 -0.008279117 0.045694854 -0.02626991
0.0869455 -0.048920024 -0.072230905 -0.069498 0.048325058 -0.08509183 -0.067714594 -0.049653586
-0.040439457 -0.017897235 -0.07939917 -0.03150712 0.0400811 -0.10476379 -0.08999211 0.0059915837

proj.weight f4 [72, 72]
00000000: 4713 f73d 1688 ce3d 193c e73d 5f1a 33bd
00000010: daca 9a3d 7560 d5bd 6a7a 5f3c e551 8dbc
00000020: 9a3d 76bd 64b9 9d3d a9f0 3bbd 1ec4 133c
00000030: dcf5 09bd 8aff ea3c 53b2 85bc be8e ee3d
00000040: c34b 04bd c8a2 603d 5ca5 eabd 8cb6 123d
00000050: bdc3 91bd f085 86bd b0e9 a83d 76b3 81bb
00000060: 6707 a9bd a467 593d 0dfa 05bc f659 6b3d
00000070: b845 0f3d 237c d1bd 513b ae3d fd7d 94bd
00000080: fc3a bb3d c003 803d bc2b 433c 1cc9 b5bd
00000090: cdcf 223d 1af4 efbb 7ad3 d63d e707 ddbc
000000a0: 8203 323c 4da3 143b 8107 8dbd dae1 8a3d
000000b0: 5ceb bcbd 7937 05bd 2db0 a7bd 37af 11bd
000000c0: e34a 7abc ad8e dd3c 443f 8a3d a77d a13d
000000d0: d8fe ebbc eda0 adbd fcfd b9bc 1f41 c3bd
000000e0: 1b90 30bc 4f9a bf3d 3f31 02be fd68 d43d
000000f0: 14d3 2ebd 325e 623d a76c a3bd efb9 14bd
00000100: ff28 f1bd ea61 7f3d 1d60 c4bb de49 d5ba
00000110: 68f2 48bc 4659 e93d 4dda e43c 75b1 cb3c
00000120: 69f5 d43d 3945 903b bb26 dcba 822e 3dbd
00000130: 3784 5cbd 1a33 bd3d 7716 ca3d b434 98ba
00000140: 4a26 f33d 61bb 4dbd 38ca ef3b 356e 34bd
00000150: 0034 01be 992e b0bd 0cef dfbb af1e 673d
00000160: c584 7cbc 87af 88bd ffcb 7fbd 8ec5 f63b
00000170: 6a8f e8bc 4828 a13d be4b 8a3d 6f68 63bd
00000180: a718 fbbc 4f2d 26bd 3b48 183d 2381 623d
00000190: 9420 683d 4719 823d 1e22 84bd f2d7 0b3d
000001a0: a3e8 153d 0d53 8dbd de42 e43b 8989 913d
000001b0: 6c2b 00be e192 383c 82aa df3d 8b4c 593d
000001c0: 09c4 f7bb 5d5b 45bc 917b 1f3d 819d 81bd
000001d0: 6214 dabd 012f c83c 2485 5c3d b32a b63d
000001e0: 4894 cbbd 1d82 923b c3b3 803b 0e08 8bbd
000001f0: 00af e03d 595d a63d 46fa b6bd a777 59bd
00000200: a951 fa3d fbab 08bd 7321 a13d d39e 9b3d
00000210: 4817 1b3d c622 ec3b c545 de3d 8ed7 e63d
00000220: ea6a 0a3d 64f0 f7bc 3ecb 853d abf1 ee3d
00000230: 7aa9 19bd 10c2 743c 6bda 1dbc b69c b13b
00000240: 07c2 323c 678f fdbc 1677 06bc e60a eebc
00000250: 3e80 7f3d 617e 58bd 1f35 463c 6935 013e
00000260: 319f 8ebd 0936 adbc 0681 fb3c 0dc2 383d
00000270: 5f1e 6a3d 420e f2bc 278f 853d b888 3ebd
00000280: 4475 ca3b bd56 adbd 4f75 243d af7b bdbd
00000290: 09f3 cf3c cdd4 183d c46c bebc 0836 363c
000002a0: c4ea 6d3c 6e47 543d c9e4 97bd d554 10bd
000002b0: d9c7 89bc 33a4 82bc 38c2 8fbd 6463 ce3d
000002c0: 94ba 99bc 6363 e9bd 2b3a 07bd a5d7 cf3c
000002d0: 70b2 8d3b 9c10 2f3d ceb8 dcbc 1ab0 16bc
000002e0: 3047 babd 17f6 1bbb afac 9abc bdc8 3ebd
000002f0: fd5a ccbd b11c a13d 2d71 8c3d fc9e 9d3d
00000300: 7fe2 933d 1b99 043d 564f a53d 31fa 91bd
00000310: a2af 4a3c 0115 36bc a59b c93c abf7 64bd
00000320: 0613 71bd 10db 5dbc c921 133a a3e2 9dbd
00000330: ecc6 a93d 3c2b 45bc c28a cdbc ccbd ee3c
00000340: cba3 b9bc 0c09 d73d 2833 25bd bf7e d5bd
00000350: b4d1 9d3d 9c32 f0bd 0ee8 123d 12aa 473d
00000360: c825 973d 3a26 54bd 3b17 01be 5b0f 24bd
00000370: 714b 3dbd 7971 da3d b6af aa3d 7f0f cc3d
00000380: 031e 48bd 1d8e 283d c887 d8bd 6f35 38bc
00000390: c15f a23d b4ca 6d3d 94d2 aa3d 975a c33c
000003a0: f9ec 9c3c ae8d 72bd 0aed a03d 802c b53d
000003b0: 004e c63d 7f48 2f3c e862 2b3b c7b0 a2bd
000003c0: f224 19bd f350 593d 29e6 41bd 3de7 053d
000003d0: 4db8 37bc 117b 28bc 620a e23c a3f3 53bc
000003e0: b9fe c93b 9d3e dfbd aec4 b3bd 2f62 5bbd
000003f0: c88b d13d 1741 193d ecb0 4f3d 80b1 6dbd
0.12064224 0.1008455 0.112907596 -0.04372632 0.07558222 -0.10418788 0.013640026 -0.017250964
-0.06011734 0.07701376 -0.04588381 0.009018926 -0.033681735 0.028686304 -0.016320383 0.1164832
-0.032298815 0.05484274 -0.11457321 0.03581862 -0.07117412 -0.06568515 0.08247697 -0.003958161
-0.08253365 0.053077355 -0.0081772925 0.05745884 0.0349786 -0.10228755 0.085074075 -0.07250593
0.0914211 0.06250715 0.011912283 -0.08876249 0.039748956 -0.0073228003 0.10489555 -0.026981307
0.010865094 0.0022680343 -0.06886197 0.06781359 -0.09224579 -0.032523606 -0.081879 -0.03556749
-0.015276643 0.027045572 0.06750348 0.078852944 -0.028808042 -0.0847796 -0.022704117 -0.09533905
-0.010776545 0.09355604 -0.12714098 0.103715874 -0.04268177 0.055265613 -0.07979708 -0.036310133
-0.117753975 0.062349238 -0.005992903 -0.0016272624 -0.012264825 0.11393981 0.027936125 0.024864892
0.10398371 0.0044027832 -0.001679621 -0.04618693 -0.053837027 0.092382625 0.09867566 -0.0011612386
0.118725374 -0.050227527 0.0073178075 -0.044050414 -0.12617493 -0.08602638 -0.0068339165 0.056425747
-0.015412514 -0.06674104 -0.062450405 0.0075308746 -0.028388698 0.07869011 0.06752728 -0.055519518
-0.030651404 -0.040570553 0.03717826 0.055298936 0.056671694 0.063524775 -0.0645182 0.03414149
0.036598813 -0.06900606 0.006965979 0.07106311 -0.12516564 0.011265487 0.10921194 0.053051513
-0.007561211 -0.0120457085 0.0389362 -0.063288696 -0.10648419 0.024436476 0.05383791 0.08894863
-0.09940392 0.004471077 0.0039276793 -0.06788646 0.109708786 0.081232734 -0.089344546 -0.053092625
0.12222607 -0.03336714 0.07867708 0.07598653 0.037864 0.0072062938 0.10853151 0.112715825
0.033793367 -0.030265994 0.06532906 0.11667188 -0.03751514 0.014938846 -0.009634594 0.0054202927
0.010910518 -0.030952169 -0.008207103 -0.029057931 0.06237816 -0.0528549 0.012097626 0.1261803
-0.06963957 -0.02114393 0.030701172 0.045106936 0.05715787 -0.029547814 0.06521445 -0.046517104
0.00617853 -0.0846381 0.040150937 -0.092521064 0.025384443 0.037312318 -0.023245223 0.0111212805
0.0145213045 0.051825933 -0.07416684 -0.035237152 -0.016818928 -0.015947437 -0.07019466 0.10077551
-0.018765725 -0.1139591 -0.033014458 0.025371382 0.00432425 0.04274045 -0.02694359 -0.009197259
-0.09095609 -0.0023797804 -0.01888117 -0.046578158 -0.09978292 0.078668006 0.06857524 0.076963395
0.07220935 0.032372575 0.08071773 -0.07127798 0.012370976 -0.011113406 0.02461035 -0.055900257
-0.058856033 -0.013540998 0.00056126394 -0.07709243 0.082898945 -0.012034234 -0.025090579 0.029143237
-0.02266111 0.104997724 -0.04033199 -0.104245655 0.07706013 -0.11728403 0.035865836 0.048746176
0.07380253 -0.05179427 -0.12606518 -0.040053707 -0.046214525 0.106661744 0.083342955 0.09963893
-0.048856746 0.041151155 -0.10572773 -0.011243208 0.0792842 0.05805464 0.08340946 0.023846908
0.019155966 -0.059217148 0.078577116 0.08846378 0.09682846 0.010698437 0.0026151482 -0.07943874
-0.03738875 0.053055715 -0.04733864 0.03269123 -0.011213374 -0.010283248 0.027592842 -0.0129365055
0.0061643985 -0.109006144 -0.08777748 -0.053560432 0.10231739 0.03741559 0.050705835 -0.058030605

proj.bias f4 [72]
00000000: 24d2 1a3d b6f0 a4bc 8767 c2bc 5ccb 853c
00000010: 8585 8dbd acb7 623d 541b c93d fbb1 ba3d
00000020: ff22 8f3d de70 853c 59c0 4dbd 702b b4bd
00000030: 325f a43d 285f c63d 3dd1 a23d a602 9dbd
00000040: ba87 b93d 0db5 98bc febd 2abd 00ab fa3d
00000050: d2f4 37bd 3f5d 813c 8b31 d2bd a91f dd3d
00000060: c056 2b3d 1f8c 923d f10a 853c 2aac 51bd
00000070: c51d 93bc ed7e 94bc 036c 82bb 1b7c cabd
00000080: 6958 983d 07e5 2ebd 0ace 8cbd 9884 51bc
00000090: d70e 133d ea23 e4bd 9c41 503d 2d8d 443d
000000a0: c479 be3d 0907 8b3d 7a41 e6bd df94 d3bd
000000b0: 6112 bbbb c9cb 93bd 48b5 683c 8bc7 d1bc
000000c0: 2e2f 27bc 3af8 053d afa3 e53c b134 253d
000000d0: 0d87 823d 6715 98bd 7a23 6c3c f99b 9cbd
000000e0: cbe3 06bd 052b 96bd a98d d23d f83d 443d
000000f0: 877b e43c ecdb 4bbd 59b9 62bc 0ae2 aabd
00000100: 3fcc acbb feb8 883d 8d35 d63c 73d5 90bb
00000110: 4b90 9cbd 5fb9 c33d a4ac fa3c 4052 c63d
0.037798062 -0.020134311 -0.023731006 0.01633232 -0.069102325 0.055350944 0.098196656 0.09115978
0.06989097 0.01628917 -0.050232265 -0.087973475 0.080259696 0.09686118 0.07950065 -0.07666521
0.09059091 -0.01864102 -0.041685097 0.12239647 -0.044911213 0.015791534 -0.10263356 0.10797054
0.041830778 0.07155632 0.016240569 -0.05118958 -0.017958531 -0.01812693 -0.003980161 -0.098869525
0.07438738 -0.042698886 -0.06875236 -0.0127879605 0.035902824 -0.111396626 0.05084382 0.0479862
0.09300569 0.06788451 -0.112429574 -0.10331129 -0.005708978 -0.07216603 0.014203377 -0.025607845
-0.01020412 0.03270743 0.028032152 0.040333454 0.06373415 -0.07425957 0.014412755 -0.07646937
-0.032932084 -0.07332424 0.10280926 0.04791066 0.027890934 -0.04977028 -0.013838136 -0.08343895
-0.0052733715 0.066759095 0.026148582 -0.0044199764 -0.07644709 0.09556841 0.0305999 0.09683657
