saved/mlp.pt (torch, 166261 bytes, 14 tensors)

layer1.weight f4 [128, 100]
0	0x3cdb2e72	0.026755545
1	0xbcf7648e	-0.030199315
2	0xbb898a87	-0.004197422
3	0x3cf3b5f8	0.029749855
4	0xbd4e72bd	-0.05040239
5	0x3d29099a	0.041268922
6	0xbc221fc0	-0.009895265
7	0x3cbc0d09	0.022955434
8	0x3a4960d6	0.0007681971
9	0x3b93eb6a	0.0045141475
10	0x3cb94d34	0.022619821
11	0x3b47d86c	0.0030493988
12	0x3c941a0c	0.018078826
13	0xbc630b9f	-0.013857751
14	0xbc299367	-0.010350085
15	0xbba9362f	-0.00516393
16	0x3bfd2ec0	0.0077265203
17	0xbac3f21a	-0.0014949471
18	0x3d461d6b	0.0483679
19	0x3ca5cced	0.020239318
20	0xbc344d96	-0.011004826
21	0xbce3d0ba	-0.02780949
22	0xbca8f485	-0.020624408
23	0xbcc659dd	-0.024212772
24	0xbaeb241d	-0.001793984
25	0x3c269f42	0.010169806
26	0x3d2180f0	0.039429605
27	0x3cffbeac	0.03121885
28	0xbd46078e	-0.04834705
29	0x3cf7c618	0.030245826
30	0x3c62ff60	0.013854831
31	0x3d614b4c	0.05500345
32	0x3d088fd9	0.03334031
33	0xbd53a75a	-0.05167327
34	0xbd78244c	-0.06058149
35	0xbc457d6f	-0.0120538315
36	0x3d833a51	0.06407607
37	0xbca45b54	-0.02006308
38	0x3c791e76	0.015205016
39	0xbc1ca8ad	-0.0095617
40	0x3d77c25d	0.060488094
41	0xbc6815d6	-0.014165362
42	0x3d4cfac9	0.050043855
43	0x3c0c5dc2	0.0085672755
44	0xbcbfc62e	-0.02340993
45	0x3cc3bad2	0.023892794
46	0xbcdce374	-0.026963927
47	0x3c1e2148	0.00965149
48	0xbc8e93b2	-0.017404411
49	0xbbaf1a0a	-0.0053436803
50	0xbd3a9060	-0.045547843
51	0xbca94ccf	-0.020666508
52	0x3ca999a2	0.02070314
53	0xbc23ca7e	-0.009997008
54	0x3d860232	0.065433875
55	0x3d72326e	0.059130125
56	0x3b68c4a6	0.0035517602
57	0xbd0c70a0	-0.034287095
58	0x3d0f1395	0.034930784
59	0x3c83ad7f	0.01607394
60	0xbd1a6ad7	-0.037699547
61	0x3d3ca2e9	0.0460538
62	0x3ced3682	0.028956655
63	0x3d55fcb1	0.05224294
64	0xbc8ea2b7	-0.017411573
65	0x3c15cc38	0.009142928
66	0x3a1fa069	0.00060892716
67	0x3b984c08	0.0046477355
68	0xbd313ef4	-0.043272927
69	0xbcd1f50e	-0.025629546
70	0x3d47a130	0.048737705
71	0xbc2426c1	-0.010019005
72	0x3d1ce7f3	0.03830714
73	0x3c3186e3	0.010835382
74	0x3bd4ba2d	0.0064919204
75	0x3c8bd869	0.017070966
76	0x3cbe087e	0.023197409
77	0x3cee16ec	0.029063664
78	0xbd4838d2	-0.048882313
79	0x3d144acf	0.036204156
80	0xbce45306	-0.02787162
81	0xbd4242aa	-0.047426857
82	0x3a771fba	0.000942703
83	0xbc130f70	-0.008975849
84	0x3d3e1845	0.046409864
85	0xbc9076e2	-0.017634813
86	0xbd35d417	-0.044391718
87	0x3d5237e0	0.051322818
88	0x3bedffeb	0.007263174
89	0x3c495043	0.012287202
90	0x3c9aabc8	0.01888074
91	0xbd36dde9	-0.044645224
92	0x3c82828b	0.015931388
93	0x3c69eb2a	0.014277259
94	0xbcfb8a2b	-0.030705532
95	0xbca1c54a	-0.019747395
96	0x3c77699d	0.015100864
97	0x3c39fd2e	0.011351867
98	0xbcc9036e	-0.024537768
99	0x3b0215a0	0.0019849315
100	0x3d5b0196	0.05346831
101	0xb9ccb9fd	-0.00039048484
102	0x3cc6babb	0.024258962
103	0x3c5a4408	0.013321884
104	0xbc8f201d	-0.017471367
105	0xbd305403	-0.04304887
106	0x3d5903c8	0.05298212
107	0x3b454dc0	0.0030106157
108	0x3cea9e7e	0.028640028
109	0x3b55748e	0.0032570693
110	0x3c9e8e6c	0.019355021
111	0x3cb334b3	0.021875715
112	0x3d08aacd	0.033366013
113	0xbcda5812	-0.026653323
114	0x3c5ad7dd	0.01335713
115	0x3d3a1109	0.045426402
116	0x3d147c1d	0.036251176
117	0x3cdfaf24	0.027305193
118	0xbd2d5746	-0.04231956
119	0xbcf41c8d	-0.02979877
120	0xbd1bff4f	-0.038085278
121	0x3bc9f42c	0.0061631408
122	0x3d412937	0.047158446
123	0xbce54875	-0.027988652
124	0x3cb980fc	0.022644512
125	0xbcbd3c6c	-0.0231001
126	0xbd3fd248	-0.0468314
127	0xbcbc045d	-0.0229513
128	0x3cb3d32e	0.021951284
129	0x3d3a5efa	0.045500733
130	0xbcb10a6c	-0.021611415
131	0x3c56834f	0.01309283
132	0x3d0f4ea9	0.034987126
133	0x3ce9eaf0	0.02855441
134	0x3ceeacf5	0.029135207
135	0x3ce69e35	0.02815161
136	0x3cfc207d	0.03077721
137	0x3c3e8f96	0.011630913
138	0xbd0e6ce8	-0.03477183
139	0xbd23d7b1	-0.04000062
140	0xbc942a11	-0.018086465
141	0xbc276a26	-0.010218179
142	0xbd10d838	-0.035362452
143	0x3c528089	0.012848028
144	0x3ca813ac	0.020517193
145	0xba962e13	-0.0011457823
146	0x3cb113c3	0.021615868
147	0x3c1f2206	0.009712702
148	0x3cc2e4c7	0.02379073
149	0x3d0967e5	0.033546347
150	0xbcb8171d	-0.022471959
151	0x3d4a4cc4	0.049389616
152	0x385b4365	5.2276435e-05
153	0xbbf9472e	-0.0076073622
154	0xbd4ad25d	-0.049517024
155	0xbcfddc7b	-0.030988922
156	0xbd0cc705	-0.034369487
157	0xbcd9e5c0	-0.026598811
158	0x3cef14d1	0.02918473
159	0xbc3eb96a	-0.011640886
160	0xbd01f2a2	-0.031725533
161	0x3caf70d5	0.021416107
162	0x3c48aaee	0.012247784
163	0x3cd97d37	0.026548965
164	0xbccd7e2d	-0.02508458
165	0x3a312d8b	0.00067588006
166	0xbc9e8160	-0.0193488
167	0xbb2759a8	-0.0025535617
168	0xbd220d46	-0.03956344
169	0xbcd6024c	-0.026124142
170	0xbc28db40	-0.0103061795
171	0x3c21c14d	0.009872747
172	0x3b2d87a4	0.0026478553
173	0x3c4d1696	0.012517592
174	0x3d3481be	0.044069044
175	0x3d5ad688	0.05342725
176	0x3d0b00b7	0.03393623
177	0x3b8df659	0.0043323454
178	0xbcdd41d8	-0.027008936
179	0x3d1b9a84	0.037989154
180	0xbca8e73b	-0.020618072
181	0xbb98f785	-0.0046681785
182	0xbd00defd	-0.03146266
183	0xbc60f96e	-0.013731344
184	0xbcfe0b38	-0.031011209
185	0x3d6172c7	0.0550411
186	0xbd604b64	-0.054759398
187	0xbd3448f4	-0.044014886
188	0x3a60f3f0	0.00085812714
189	0xbce71ba0	-0.028211415
190	0x3c990fa5	0.018684218
191	0xbca586ae	-0.020205822
192	0xbc937692	-0.018000875
193	0x3bf5c11c	0.007499827
194	0x3d2c78ae	0.042107277
195	0xbd3141e3	-0.043275725
196	0x3ca95296	0.020669263
197	0x3d22c075	0.039734323
198	0x3d29e4b0	0.04147786
199	0xbd13f2ae	-0.03612011
200	0x3c84174a	0.016124386
201	0xbd366056	-0.044525467
202	0x3d343bf6	0.044002496
203	0xbccd9412	-0.02509502
204	0x3d304595	0.04303511
205	0xbb9efbf7	-0.004851814
206	0x3c542dab	0.012950341
207	0x3b81a293	0.003956148
208	0x3a2828ae	0.0006414753
209	0x3c26518f	0.010151281
210	0x3c0cd862	0.008596512
211	0x3c73ac8b	0.01487268
212	0xbd515833	-0.051109504
213	0x3cd5c79a	0.026096154
214	0x3d4ed03d	0.05049156
215	0x3d4aca7f	0.04950952
216	0x3d28694b	0.04111604
217	0xbcf17a01	-0.029477121
218	0xbc9decdb	-0.01927798
219	0x3d57c032	0.052673526
220	0xbd6cdc80	-0.057827473
221	0x3d675399	0.05647621
222	0xbd3aa4b0	-0.045567214
223	0xbd19cab1	-0.037546817
224	0x3c69adea	0.014262656
225	0xbd1292ad	-0.035784412
226	0xbc275ae9	-0.010214546
227	0x3d048c62	0.032360442
228	0x3d034a99	0.032053564
229	0x3d4a80bb	0.049439173
230	0x3bca04fa	0.006165144
231	0xbd35df77	-0.044402566
232	0x3d6f0d33	0.058362197
233	0xbc396b5a	-0.0113170985
234	0xbbe1be00	-0.006889105
235	0x3c0c9189	0.00857962
236	0xbceb4517	-0.028719468
237	0x3caf7c94	0.021421708
238	0x3cd11a56	0.025525253
239	0xbd5eafe6	-0.05436697
240	0xbd3e2664	-0.04642333
241	0xbbab17da	-0.005221349
242	0x3cba8809	0.022769945
243	0xbc0c8b2d	-0.008578104
244	0xbcac13c7	-0.021005524
245	0x3c5b0ad6	0.013369283
246	0xbd59d411	-0.053180758
247	0xbce0c49c	-0.0274375
248	0xbce34174	-0.027741171
249	0x3d2e01b2	0.042482086
250	0x3d598851	0.053108517
251	0xbbc240da	-0.005928141
252	0x3bbc34fb	0.0057436205
253	0x3c8fdb2c	0.017560564
254	0xbbe0c436	-0.0068593277
255	0xbcd82c57	-0.02638833

layer1.bias f4 [128]
0	0xbbb5f338	-0.0055526756
1	0x3ba2e56c	0.004971197
2	0x3bab0362	0.005218909
3	0xbcc3d713	-0.023906266
4	0x37b2d4e0	2.1318381e-05
5	0xbbfc9c52	-0.0077090645
6	0xbcd9e72d	-0.026599491
7	0xbc9a8d42	-0.018866185
8	0xbc8a69c9	-0.016896145
9	0x3c01749e	0.007901339
10	0x3ba11575	0.004915888
11	0x3c91a9e3	0.017781204
12	0x3bb9bf77	0.0056685763
13	0x3cadbfcc	0.02120962
14	0x3c9ffe79	0.019530522
15	0x3b7516d8	0.003739765
16	0x3c8c37a5	0.017116377
17	0xbc99cd57	-0.018774671
18	0x3cfe871b	0.031070283
19	0x3c8f5078	0.017494425
20	0x3cead5ad	0.028666342
21	0x3af5da42	0.0018757062
22	0xbc0aafe9	-0.008464792
23	0xbc8c10dd	-0.017097885
24	0x3c169ee3	0.009193155
25	0xbc8693a3	-0.01642782
26	0x3c60c661	0.013719172
27	0x3c2f63c0	0.010704935
28	0xb9878137	-0.0002584548
29	0x3cf1ae3b	0.029502025
30	0x3b9f986c	0.004870465
31	0xbc52e1d5	-0.012871225
32	0x3d0c9e2b	0.03433053
33	0x3bddda44	0.006770404
34	0xba256087	-0.0006308634
35	0x3be63abf	0.007026046
36	0xbc4a71a7	-0.012356198
37	0x3cec48d4	0.02884332
38	0x3b279b3d	0.0025574707
39	0xbca11644	-0.019663937
40	0x3afd2196	0.0019312378
41	0x3b598f5e	0.0033197026
42	0x3ae232ad	0.0017257534
43	0x3b9cd782	0.0047864327
44	0xbc792ed9	-0.015208923
45	0x3c1846dd	0.009294239
46	0x3d11760c	0.03551297
47	0xbbc134dc	-0.005896194
48	0xbc10a599	-0.008828544
49	0xbc6f0868	-0.014589407
50	0x3cb0d350	0.021585137
51	0xbb6541e3	-0.0034981898
52	0x3ca73401	0.02041054
53	0x3c8bc514	0.017061748
54	0xbc38d92d	-0.0112822475
55	0x3c41f6f0	0.01183866
56	0x3c8d289a	0.017231274
57	0x3bec65ef	0.0072143
58	0x3cc72636	0.024310213
59	0x3c34efa4	0.011043463
60	0x3c9585e5	0.018252322
61	0x3bee1575	0.0072657415
62	0xbc4094f2	-0.011754261
63	0xbb8bb258	-0.0042632036
64	0x3cc87ab2	0.024472568
65	0x3cd902da	0.026490618
66	0xbc646c59	-0.013941848
67	0x3b2ffb31	0.0026852603
68	0xbcb8301f	-0.022483883
69	0x3cb525c1	0.022112729
70	0xbc078b80	-0.0082730055
71	0xbb0e1988	-0.0021682698
72	0xbb512416	-0.0031912378
73	0x3c448180	0.011993766
74	0xbc4823bf	-0.012215554
75	0x3d1504a3	0.036381375
76	0x3ce3368d	0.027735973
77	0x3c05f700	0.008176565
78	0xbcd769a8	-0.026295498
79	0x3c482561	0.012215943
80	0xbbb287cf	-0.0054483186
81	0x3b16d10c	0.0023012785
82	0xbc14b8b6	-0.009077242
83	0x3c689dec	0.014197808
84	0xba2df740	-0.00066362694
85	0x3b0e0df4	0.0021675797
86	0x3cc35067	0.02384205
87	0xbb36e34a	-0.002790647
88	0x3c07647c	0.008263703
89	0x3b0c7b81	0.0021435919
90	0x3c161549	0.009160348
91	0x3bb1cfd8	0.0054263882
92	0xbd066e49	-0.03282002
93	0x3c0ea62c	0.008706611
94	0x3ba0ec33	0.0049109696
95	0x3cbc29c2	0.02296913
96	0x3bc422d4	0.005985597
97	0x3cd2c846	0.025730263
98	0xba9c471c	-0.0011923048
99	0xbbbaf934	-0.005705977
100	0x3bfc9469	0.0077081216
101	0x3cb1a59b	0.021685412
102	0xbc659d29	-0.014014521
103	0x3c8b7679	0.017024266
104	0x3b5b29bc	0.0033441624
105	0x3ce4739c	0.027887158
106	0xbc9bbd88	-0.019011274
107	0x3cb27e5c	0.021788768
108	0xbc9e3a1b	-0.019314816
109	0x3c7128aa	0.014719168
110	0xbc00feda	-0.007873261
111	0x3d0a38b0	0.033745468
112	0x3c73bd7f	0.014876722
113	0xbcff7aeb	-0.031186542
114	0xbc79ec62	-0.015254112
115	0xbc67e563	-0.014153811
116	0xbbabc669	-0.005242158
117	0xbc736640	-0.014855921
118	0x3adc80af	0.0016823019
119	0xbba0cdfe	-0.0049073687
120	0x3be97eca	0.00712571
121	0xbc9438fa	-0.018093575
122	0xbbccab2e	-0.006245992
123	0x3ce527d8	0.0279731
124	0x3ca1c67d	0.019747967
125	0x3c2982c4	0.010346118
126	0x3c29da4b	0.0103669865
127	0xbb7fac60	-0.0039012656

bn1.weight f4 [15]
0	0x3f4e40a7	0.805674
1	0x3f4e5e4e	0.8061265
2	0x3f4e54a6	0.80597913
3	0x3f4e7aa5	0.8065589
4	0x3f4e8091	0.80664927
5	0x3f4dfd79	0.80464894
6	0x3f4ded8e	0.80440605
7	0x3f4e0d2b	0.8048884
8	0x3f4e135f	0.8049831
9	0x3f4e4e62	0.8058835
10	0x3f4e3148	0.8054395
11	0x3f4e65cd	0.80624086
12	0x3f4e78f0	0.80653286
13	0x3f4e2f4a	0.8054091
14	0x3f4e4f65	0.80589896

bn1.bias f4 [15]
0	0xbb90ae5d	-0.004415317
1	0xbc8225c4	-0.015887149
2	0x3c08af59	0.008342587
3	0x3bd6093e	0.0065318635
4	0xbc69bd99	-0.014266395
5	0xbc312d88	-0.010814078
6	0xbb9c66fb	-0.0047730184
7	0xbbbeffad	-0.005828819
8	0xbc1698c4	-0.009191696
9	0x3c62468b	0.013810764
10	0x3a45ee6e	0.00075504824
11	0xbc834798	-0.01602535
12	0xbb542050	-0.0032367893
13	0xbbb6875a	-0.0055703344
14	0xbbb40b0b	-0.0054944805

bn1.running_mean f4 [15]
0	0x3e83b322	0.25722605
1	0x3e99e9d0	0.30061197
2	0x3ea18ece	0.31554264
3	0x3ea055fe	0.31315607
4	0x3ea395d9	0.31950262
5	0x3ea5bfea	0.3237298
6	0x3ea1aa76	0.31575364
7	0x3ea35f2d	0.3190855
8	0x3ea4ca57	0.32185623
9	0x3e9e3288	0.30897927
10	0x3ea1e760	0.31621838
11	0x3ea1f793	0.31634197
12	0x3e9bf5e7	0.30461046
13	0x3e976869	0.29571846
14	0x3e846ec5	0.2586576

bn1.running_var f4 [15]
0	0x3e30047f	0.17189215
1	0x3e628ba2	0.22123578
2	0x3e74a801	0.23892213
3	0x3e79fc96	0.2441276
4	0x3e7ae007	0.24499522
5	0x3e805cc3	0.25070772
6	0x3e7d04ff	0.24708937
7	0x3e79e026	0.24401912
8	0x3e804169	0.25049904
9	0x3e7276a2	0.23678067
10	0x3e777ba4	0.24168259
11	0x3e77e34b	0.24207799
12	0x3e6ecd98	0.23320615
13	0x3e5a4b00	0.21317673
14	0x3e358855	0.17727788

layer2.weight f4 [64, 128]
0	0x3d24ba6a	0.04021684
1	0x3ca2fe37	0.01989661
2	0xbd9aad96	-0.0755264
3	0x3c83d8d2	0.016094599
4	0xbc9f3d37	-0.01943837
5	0xbd21e864	-0.039528266
6	0xbc976cdd	-0.018484527
7	0xbc55369f	-0.013013511
8	0x3c4a340b	0.01234151
9	0xbceec068	-0.02914448
10	0xbc04418b	-0.008072267
11	0x3b40293c	0.0029321453
12	0xbbe1e451	-0.0068936725
13	0x3d2ece92	0.04267747
14	0xbafc497a	-0.0019247972
15	0x3c2d36ec	0.010572176
16	0xbb99adee	-0.0046899235
17	0x3cd5914b	0.026070258
18	0x3c4c689e	0.012476115
19	0xbca96968	-0.020680144
20	0x3cc3cc30	0.023901075
21	0x3ca5bbaa	0.020231087
22	0x3b668ad2	0.0035177958
23	0xbd293200	-0.04130745
24	0xbd58d9a4	-0.052941933
25	0xbd394144	-0.045228258
26	0x3d46906d	0.04847758
27	0xbd0d16c8	-0.034445554
28	0xbcb8f352	-0.022576962
29	0x3cd0b00d	0.025474573
30	0x3d23ff96	0.040038668
31	0xbc577635	-0.013150741
32	0xbc9dcd62	-0.019262973
33	0x3cf60e81	0.030036213
34	0xbd32433b	-0.043521147
35	0x3c938204	0.018006332
36	0xbc9baf45	-0.019004473
37	0x3ce07d49	0.02740349
38	0xbcfdc6e2	-0.030978624
39	0x3d2a33a5	0.04155316
40	0xbc5687bc	-0.013093885
41	0xbcc818ae	-0.02442583
42	0xbd389837	-0.04506704
43	0x3cd260b4	0.025680877
44	0xbca916aa	-0.02064069
45	0xbd11ea30	-0.03562373
46	0xbc8fb23a	-0.01754104
47	0x3ac5c460	0.0015088432
48	0x3cc6b53e	0.024256345
49	0x3d195e3e	0.037443392
50	0xbd39e431	-0.045383636
51	0x3cc8b85a	0.024501968
52	0x3bc4e772	0.0060090357
53	0xbc4f3504	-0.012646917
54	0xbd686348	-0.056735307
55	0xbd2e4061	-0.042541865
56	0x3ce696dc	0.028148107
57	0xbcdcbcc6	-0.026945483
58	0x3d00877d	0.03137921
59	0xbd0c5c91	-0.034267966
60	0x3d398db1	0.045301143
61	0xbda1a60c	-0.07892999
62	0xbbedde46	-0.007259163
63	0xbd1bc633	-0.038030814
64	0xbd146d95	-0.036237318
65	0xbcb6faae	-0.02233633
66	0xbd0eb7d1	-0.03484327
67	0x3d430df7	0.04762074
68	0xbb47fc6a	-0.003051544
69	0xbd64d0e5	-0.05586328
70	0x3ce6f6ba	0.02819382
71	0x3bf4a3f0	0.007465832
72	0xbcf630c4	-0.03005255
73	0xbc88886a	-0.01666661
74	0xbc13ba43	-0.009016576
75	0xbd5a708b	-0.053329986
76	0xbd16e4c6	-0.03683927
77	0x3d5e8038	0.054321498
78	0x3cfefb0e	0.031125572
79	0xbbb55996	-0.005534361
80	0x3d52d061	0.051468257
81	0xbc978ee5	-0.018500755
82	0xbd073b61	-0.033015613
83	0x3d417c62	0.04723776
84	0xbc97f687	-0.01855017
85	0xbb4f58c8	-0.003163861
86	0x3d14f6e1	0.036368255
87	0xbd71fba3	-0.05907787
88	0x3bb41ddd	0.005496724
89	0x3cd714ab	0.026254972
90	0x3b581fec	0.0032978011
91	0xbcac6221	-0.021042885
92	0xbc840a12	-0.016118083
93	0x3d224922	0.039620526
94	0x3cd76729	0.026294308
95	0x3d5a56f5	0.053305585
96	0x3cb51499	0.022104548
97	0xbc828585	-0.015932808
98	0x3a78c807	0.00094902556
99	0x3c5801a9	0.01318399
100	0x3d146f86	0.03623917
101	0x3c1c8e15	0.009555359
102	0x3d07e061	0.03317297
103	0xbcca736b	-0.024713239
104	0xbb7281a6	-0.0037003546
105	0x3d2c1adf	0.042017814
106	0x3cdcbbbc	0.026944987
107	0x3d2b30c2	0.041794546
108	0xbcae7f09	-0.02130081
109	0x3c8d3d35	0.0172411
110	0xbd28d913	-0.041222643
111	0x3cc0c909	0.023533361
112	0xbd242231	-0.04007167
113	0x3c59d0be	0.013294397
114	0xbc7672e6	-0.015042042
115	0xbc38404c	-0.011245798
116	0xbc9cf855	-0.019161383
117	0x3c9e34e9	0.019312339
118	0x3ca46150	0.020065933
119	0x3cc321b3	0.02381978
120	0xbd5542bc	-0.052065596
121	0xbb8359a4	-0.0040084887
122	0xbb5cf395	-0.0033714522
123	0xbc0c5b92	-0.008566754
124	0x3cdc8d55	0.026922861
125	0xbcd5e452	-0.026109848
126	0x3cb1e8e1	0.02171749
127	0x3cdbbb22	0.02682263
128	0xbd225de0	-0.039640307
129	0xbc09e08b	-0.008415352
130	0x3bb7a0c2	0.0056038806
131	0xbcb171cd	-0.02166071
132	0xbbec2187	-0.007206145
133	0xbd38cf6a	-0.04511968
134	0xbce08ac4	-0.027409919
135	0x3bfb4fdd	0.0076694326
136	0x3be7c3e8	0.0070729144
137	0x3cc06db0	0.023489803
138	0x3caff360	0.021478355
139	0x3d089fc1	0.03335548
140	0x3af2e3f0	0.0018531065
141	0x3be9dd3a	0.007136968
142	0x3c44eeea	0.012019852
143	0x3bb0b2e3	0.0053924187
144	0xbd0458dd	-0.03231131
145	0x3d237dbd	0.039914835
146	0x3c100cd2	0.008792119
147	0x3d33e880	0.0439229
148	0x3b9bfb7c	0.004760204
149	0xbcba3012	-0.022728
150	0xbd19a910	-0.037514746
151	0x3d19650b	0.037449878
152	0x3d5b9aae	0.05361431
153	0xbc4d092a	-0.012514392
154	0x3c01d8dd	0.007925239
155	0xbd2c7d38	-0.042111605
156	0xbcd47d6b	-0.02593871
157	0xbd456563	-0.048192393
158	0xbd0ff0c1	-0.03514171
159	0xbcbe58fa	-0.023235787
160	0xbb6d79f3	-0.0036236017
161	0x3c3e4c32	0.011614846
162	0x3a1ea208	0.0006051366
163	0xbcbd6adf	-0.02312225
164	0x3cbe8247	0.02325548
165	0xbd706428	-0.058689266
166	0xba227691	-0.00061974773
167	0x3c8bbb86	0.017057192
168	0xbd65de0d	-0.056119967
169	0xbc22a9dd	-0.009928194
170	0xbd848b0a	-0.06471832
171	0xbc1ee357	-0.009697757
172	0x3d359f3e	0.04434132
173	0x3d0e49f6	0.034738503
174	0x3c924c55	0.017858664
175	0xbcb9d566	-0.022684764
176	0x3d1f2308	0.038851768
177	0xbd34d41d	-0.0441476
178	0x3c5983f5	0.01327609
179	0xbc98f927	-0.018673493
180	0x3d04bfba	0.032409407
181	0xb9876350	-0.000258232
182	0xbd031681	-0.032003883
183	0x3c79b272	0.015240299
184	0x3d37bba7	0.044856694
185	0xbd028105	-0.031861324
186	0xbc9882f3	-0.018617129
187	0x3d3e1c33	0.04641361
188	0x3ce06492	0.027391706
189	0xbc00a5a6	-0.007851994
190	0xbd26589f	-0.04061186
191	0x3a1d6f0e	0.0006005623
192	0x3d46dd9c	0.048551187
193	0xbca9c6ad	-0.020724619
194	0xbcb9b492	-0.02266911
195	0x3d16ec8a	0.036846675
196	0xbd14275d	-0.036170352
197	0x3cd00094	0.0253909
198	0xbcd26497	-0.02568273
199	0x3c56df28	0.013114728
200	0xbc5e2518	-0.0135586485
201	0x3c9cf959	0.019161867
202	0xbcc928ff	-0.024555681
203	0x3ca315c0	0.019907832
204	0x3c36222d	0.011116547
205	0xbd3e7a35	-0.046503264
206	0x3cf17d62	0.029478732
207	0xbb178d35	-0.0023124937
208	0xbcc76066	-0.024337959
209	0x3d196d88	0.037457973
210	0xbcc04f5f	-0.023475347
211	0xbc462466	-0.012093639
212	0x3d11b4b9	0.03557274
213	0xbd205f31	-0.03915328
214	0x3d185a68	0.037195593
215	0x3d3957d0	0.04524976
216	0x3c58c3ab	0.013230245
217	0x3c66fa03	0.014097693
218	0xbceca2a5	-0.028886149
219	0x3ce6251a	0.028093863
220	0xbc31b1ac	-0.010845583
221	0x3b5bd74a	0.003354507
222	0x3c6bf0ab	0.014400641
223	0xbcf10a95	-0.029423991
224	0xbc908052	-0.017639313
225	0xbcee9ced	-0.029127562
226	0xbc5155a4	-0.012776766
227	0xbc944c33	-0.01810274
228	0x3c88a1e6	0.016678762
229	0xbd265cb6	-0.04061576
230	0xbce07bb7	-0.027402742
231	0xbd4a3ce3	-0.049374472
232	0xbc3abaf4	-0.011397112
233	0x3d265d1b	0.040616136
234	0x3a92dec2	0.0011205303
235	0x3cfa30af	0.030540792
236	0x3c9b2750	0.018939644
237	0x3d771735	0.060324866
238	0xbccf813c	-0.025330178
239	0xbd151742	-0.036399134
240	0xbd0fd227	-0.035112526
241	0x3d4c18e4	0.049828425
242	0xbd61f391	-0.055163924
243	0x3b872d19	0.004125249
244	0xbcff770a	-0.031184692
245	0x3bb8cc59	0.0056395945
246	0x3cc6685a	0.02421968
247	0x3c86d0ff	0.016457079
248	0xbc148507	-0.009064919
249	0x3ce7c135	0.02829037
250	0xbd23a8ca	-0.03995589
251	0x3d1f2b91	0.038859908
252	0xbc8f6919	-0.01750617
253	0xbc38195e	-0.011236517
254	0xbbc65506	-0.006052616
255	0xbcfaa6eb	-0.03059717

layer2.bias f4 [64]
0	0x3cf74223	0.030182904
1	0xbc980b71	-0.018560143
2	0x3c8892f2	0.016671631
3	0x3d65c9e2	0.056100734
4	0x38881584	6.488993e-05
5	0x3add43dd	0.0016881187
6	0xbc7d6401	-0.015465737
7	0xbd437fb5	-0.047729213
8	0xbc272d96	-0.01020374
9	0xbc964f8b	-0.018348476
10	0xbb2476b6	-0.0025095171
11	0xbbb43929	-0.005499978
12	0x3c22836c	0.009919029
13	0xbd391a95	-0.045191366
14	0x3c6e52b3	0.014546084
15	0xbc7c98ee	-0.015417321
16	0x3cfd13aa	0.030893166
17	0x3a67a266	0.000883615
18	0xbceaf5e4	-0.028681703
19	0x3c1acb11	0.009447829
20	0x3be37075	0.006940896
21	0x3a494831	0.0007678299
22	0x3d62fbd9	0.055415962
23	0xbd0469b2	-0.03232736
24	0xbc18e4ce	-0.009331895
25	0x3bb41091	0.005495139
26	0x3d1df8bc	0.03856729
27	0xbd162a4d	-0.036661435
28	0x3d184db1	0.037183467
29	0x3d35cce9	0.04438487
30	0x3cc7037a	0.02429365
31	0x3c9d8e8a	0.019233007
32	0x3cf30c26	0.029668879
33	0x3d27f4fc	0.04100512
34	0x3d306751	0.04306728
35	0x3d7afaaa	0.061274208
36	0xbd1c543a	-0.038166262
37	0xbc078672	-0.0082718
38	0xbbb84363	-0.0056232675
39	0xbc09a595	-0.008401294
40	0xbcba5338	-0.02274476
41	0x3c791c6d	0.015204531
42	0x3d2736c2	0.040823705
43	0x3b2c255c	0.0026267385
44	0x3cdbae0f	0.026816396
45	0xbc86bc1b	-0.016447118
46	0xbb51d9cc	-0.0032020686
47	0xbd532fca	-0.051559247
48	0x3d629f34	0.05532761
49	0x3ce64a12	0.028111491
50	0xbcf6486d	-0.030063832
51	0x3c3619ae	0.011114521
52	0x3c470373	0.012146818
53	0xba1c8040	-0.00059700385
54	0x3c8cf6b8	0.017207488
55	0x3b118789	0.002220603
56	0xbcfba199	-0.030716704
57	0xbbdfd6d5	-0.00683103
58	0xbad167d9	-0.0015976384
59	0x3c8170ce	0.01580086
60	0x3d1c4ed2	0.038161106
61	0xbca33f40	-0.01992762
62	0x3c09bcc5	0.008406823
63	0x3cbd8053	0.023132479

bn2.weight f4 [15]
0	0x3f5e8bc7	0.86932033
1	0x3f5db570	0.86604977
2	0x3f5c75e3	0.8611738
3	0x3f5f83ec	0.8731067
4	0x3f603bd6	0.875913
5	0x3f60501f	0.87622255
6	0x3f650c52	0.89471924
7	0x3f64acdf	0.8932628
8	0x3f646ad1	0.8922549
9	0x3f61d7b5	0.8821977
10	0x3f60c8ac	0.878062
11	0x3f60e288	0.8784566
12	0x3f5e45ae	0.8682507
13	0x3f57ff3c	0.8437383
14	0x3f5cde7b	0.8627698

bn2.bias f4 [15]
0	0xbc6a4441	-0.0142985
1	0xbbae6462	-0.005322025
2	0xbc661594	-0.014043231
3	0xbc1ab5c0	-0.009442747
4	0xbc523bc4	-0.012831632
5	0xbc1df64d	-0.009641242
6	0xbc483b0d	-0.01222111
7	0xbc7a0766	-0.015260553
8	0xbc8c5e34	-0.017134763
9	0xbc6543ca	-0.013993213
10	0xbb64389e	-0.0034823786
11	0xbcc9d875	-0.024639348
12	0xbc120177	-0.008911482
13	0xbb70af82	-0.0036725705
14	0xbc1228c9	-0.008920857

bn2.running_mean f4 [15]
0	0x3df96d8f	0.121791
1	0x3df52ded	0.1197165
2	0x3e01862d	0.1264884
3	0x3dfcc24e	0.12341748
4	0x3df4f292	0.11960329
5	0x3e0682eb	0.13135879
6	0x3e01c921	0.12674381
7	0x3def6404	0.11688998
8	0x3e04ecc4	0.12980944
9	0x3df97995	0.12181393
10	0x3dea8490	0.114510655
11	0x3e061cf3	0.13096981
12	0x3e008d50	0.12553906
13	0x3dee89c6	0.11647372
14	0x3e0009fd	0.1250381

bn2.running_var f4 [15]
0	0x3cd89ab9	0.026440965
1	0x3cdd0c71	0.026983472
2	0x3ce654f3	0.028116679
3	0x3cdec1ce	0.027192023
4	0x3cdf1dbb	0.027235856
5	0x3cf08cfc	0.029364102
6	0x3ce877aa	0.028377373
7	0x3cd85f94	0.026412763
8	0x3ced40c7	0.028961552
9	0x3cde1a63	0.027112192
10	0x3cd2ff69	0.025756555
11	0x3cef9bb9	0.029249059
12	0x3ce4c22f	0.027924625
13	0x3cd2e320	0.025743067
14	0x3cdb78bc	0.02679097

layer3.weight f4 [20, 960]
0	0x3c3594af	0.011082812
1	0xbc9f586a	-0.019451339
2	0xbc53ec70	-0.012934789
3	0xbcb574d5	-0.022150436
4	0x3ab42f0a	0.0013746929
5	0xbcbf5fcc	-0.02336111
6	0x3cb1c5dc	0.021700792
7	0x3b58106f	0.003296878
8	0xbb36fbe7	-0.0027921142
9	0xbc90805e	-0.017639335
10	0x3c911864	0.017711826
11	0x3be5208d	0.0069924057
12	0xbc51e9db	-0.012812103
13	0x3b4ccc66	0.003124976
14	0xbb95d805	-0.0045728707
15	0xbc681a16	-0.014166376
16	0xbc656c71	-0.014002905
17	0x3b9872d7	0.004652362
18	0xbc60c538	-0.013718896
19	0x3c713e4d	0.014724326
20	0xbc95f6f4	-0.018306233
21	0xbcdd25c8	-0.026995555
22	0xbc426b31	-0.011866377
23	0xbc430cb2	-0.011904882
24	0x3bd9ad5b	0.00664298
25	0x3c4fd802	0.012685778
26	0xbc2ba6f8	-0.01047682
27	0xbc57aad8	-0.013163291
28	0xb974ff00	-0.00023364648
29	0x3ab6511e	0.0013909673
30	0x3b052a0e	0.0020319256
31	0xba13b25e	-0.0005634184
32	0x3c87d0af	0.016579
33	0xbcc27220	-0.02373606
34	0x3b8734a8	0.00412615
35	0xbbb2e267	-0.005459118
36	0xbba07038	-0.00489619
37	0x3b90dc46	0.00442079
38	0xbca6e774	-0.020374037
39	0xbcdf7929	-0.027279453
40	0xbc9e76ef	-0.019343821
41	0xbb054a98	-0.002033865
42	0x3bf34e87	0.0074251327
43	0x3d002832	0.031288333
44	0xbcf99208	-0.030465141
45	0x3ca20b3e	0.019780751
46	0xbcc2b5db	-0.023768356
47	0x39bde1a2	0.00036217
48	0x3ceb9f9c	0.028762631
49	0xb98c3c50	-0.00026747817
50	0xbd087e1f	-0.033323403
51	0xbc8ac63c	-0.016940229
52	0xbc12c3c1	-0.008957804
53	0x3922ddfa	0.00015532217
54	0xbc99f919	-0.018795537
55	0xbbb348c5	-0.0054713213
56	0xbb1e1d8b	-0.0024126496
57	0x3c56047e	0.013062594
58	0x3c05e81f	0.008173018
59	0xbcbee684	-0.023303278
60	0xbbaaa5be	-0.0052077463
61	0xbc0dc80d	-0.008653653
62	0x39dce53c	0.00042132463
63	0xbc63b254	-0.013897497
64	0x3bad14c4	0.0052820165
65	0xbd137850	-0.03600341
66	0xbc7eb6f9	-0.015546554
67	0xbbf3260a	-0.007420306
68	0x3b84bc4a	0.004050766
69	0x3b37859c	0.0028003221
70	0xbbec4950	-0.007210888
71	0xbcf1d6da	-0.029521395
72	0xbd0e0efc	-0.03468226
73	0xbbc205f5	-0.0059211203
74	0xbb8b544a	-0.0042519914
75	0xbae4b82d	-0.0017449908
76	0x3ca8f223	0.020623272
77	0xbbf2e261	-0.0074122404
78	0xbcab4743	-0.020908004
79	0x3b2e3c0f	0.002658609
80	0x3cfac941	0.030613543
81	0x3d2acb36	0.041697703
82	0x39ff5e17	0.00048707493
83	0x3d1074c3	0.035267603
84	0xbbc0fc8e	-0.005889482
85	0x3cb4cc5f	0.022070108
86	0xbcd47117	-0.025932832
87	0xbb139f0b	-0.0022525217
88	0x3c86b78b	0.016444942
89	0xbcae6c27	-0.021291805
90	0xbcd28ff6	-0.025703412
91	0x3c0e8911	0.008699671
92	0xbb869153	-0.0041066795
93	0x3a946d02	0.0011323991
94	0xbbd95965	-0.006632971
95	0xbc154832	-0.009111451
96	0xbc21fe37	-0.00988727
97	0x3c5b85f9	0.013398641
98	0xbc996516	-0.01872496
99	0xbc899685	-0.016795406
100	0x3bc56142	0.006023557
101	0xbc4ea873	-0.012613404
102	0xbc8e21fc	-0.01735019
103	0xbd0b9382	-0.03407622
104	0xbbc71056	-0.0060749454
105	0x3cd6f7ef	0.02624127
106	0xba374c74	-0.00069922884
107	0x3c7f49e9	0.015581586
108	0xbcb13913	-0.02163366
109	0xbb1675a4	-0.0022958303
110	0xbc0670a8	-0.00820557
111	0xbae30be3	-0.0017322268
112	0x3c0cdea8	0.008598007
113	0x3afd3b07	0.001931996
114	0x3cb4acfd	0.022055143
115	0xbd0fd4ba	-0.03511498
116	0x3c0f2c03	0.008738521
117	0x3cc582df	0.024110256
118	0xbc2b94a1	-0.010472448
119	0x3ad8b9d8	0.0016534878
120	0x39b3a1d1	0.00034262103
121	0x3ceeab42	0.029134396
122	0x3b6d6cac	0.0036228104
123	0xbcb59b24	-0.022168703
124	0xbca53bf4	-0.02017019
125	0xbceee1e1	-0.029160442
126	0x3b7ab8c6	0.0038257106
127	0x3c5d09a9	0.013491073
128	0x3ccb4509	0.024813192
129	0xbd263b37	-0.040583815
130	0xbce02dd7	-0.027365608
131	0x3cd42b52	0.025899563
132	0xbc519632	-0.012792157
133	0xbc959670	-0.01826021
134	0x3c048715	0.008088847
135	0xbc8f0ed0	-0.017463118
136	0xbcb09f90	-0.02156046
137	0x3c6d17ca	0.014471004
138	0x3b6904f2	0.0035555926
139	0xbc7443e6	-0.014908766
140	0x3b73223c	0.0037099263
141	0x3c29d1ae	0.010364933
142	0xbd1f5bac	-0.038905784
143	0xbd10c157	-0.035340633
144	0x3c13c8d9	0.009020054
145	0x3c81b46d	0.015833104
146	0x3ba84a34	0.005135799
147	0x3b81a2b5	0.003956164
148	0xbca2f50a	-0.019892234
149	0x3be223e5	0.0069012516
150	0xbcbcef56	-0.023063343
151	0x3cc34e1f	0.023840962
152	0xbcd4901f	-0.025947629
153	0x3b975384	0.00461811
154	0x3b2705bb	0.0025485593
155	0x3c275313	0.0102126775
156	0xbc636336	-0.013878634
157	0xbcce2d6f	-0.025168149
158	0x3affc482	0.001951352
159	0xbc9c2de1	-0.019064846
160	0xbb587fc8	-0.0033035148
161	0x3cb94683	0.02261663
162	0x3ce1cd83	0.027563816
163	0x3c0891e8	0.008335568
164	0x3b7e2d30	0.0038784258
165	0x3cb9adbc	0.02266585
166	0xbc7b36cc	-0.015332889
167	0xbc9cd491	-0.019144328
168	0xba338140	-0.0006847568
169	0xbc20cdb6	-0.00981467
170	0x3bbd3638	0.0057742856
171	0xbcb643c7	-0.022249116
172	0xbb8bb500	-0.0042635202
173	0xbcc2c0d2	-0.023773585
174	0x3d28bfd4	0.041198567
175	0xbb0971e1	-0.0020972418
176	0x3c89b5fd	0.016810412
177	0xbb8d1358	-0.0043052845
178	0x3c5dda69	0.013540843
179	0xbc7d95d9	-0.015477621
180	0xbc89dc56	-0.016828697
181	0x3b5a4eb6	0.0033311076
182	0xbc0f6564	-0.008752201
183	0xbbb114b0	-0.0054040775
184	0xbcf3e4d0	-0.029772192
185	0xbb28bd6b	-0.0025747668
186	0xbcfc1767	-0.030772878
187	0xbcab645b	-0.020921877
188	0x3b8615e8	0.004091967
189	0xb9d1d1ee	-0.00040019996
190	0xbbd09a2a	-0.006366034
191	0x3cdb13a7	0.02674277
192	0x3c316544	0.010827366
193	0xbc3cd5d7	-0.011525593
194	0x3c32b84b	0.010908197
195	0x3a3756e8	0.0006993846
196	0x3cbac8fa	0.022800911
197	0x3c9a8feb	0.018867454
198	0xbcc5f274	-0.024163462
199	0x3cf2b50e	0.02962735
200	0x3c401325	0.011723314
201	0x3b279eb0	0.0025576763
202	0x3c97da5a	0.018536735
203	0xbb1dafab	-0.0024061005
204	0xbc76eef1	-0.0150716165
205	0xbc50938f	-0.012730493
206	0xbbdb4d74	-0.0066925827
207	0x3cb478da	0.022030283
208	0xbbca6558	-0.006176632
209	0xbc7f72bc	-0.01559132
210	0xb9b4d4e3	-0.00034490888
211	0xbc0e748a	-0.008694777
212	0xbc2bf705	-0.010495906
213	0xbc91ea95	-0.017812053
214	0xbc0ebd9a	-0.008712197
215	0xbca0d2ae	-0.01963171
216	0x3c218a04	0.009859566
217	0xbc0d9bbc	-0.008643087
218	0xbb2dd159	-0.0026522486
219	0x3bd2513d	0.0064183758
220	0x3c89af33	0.016807174
221	0xbc3887bc	-0.01126283
222	0xbcb4fdf5	-0.022093752
223	0x3c189454	0.009312708
224	0x3ce7e5cc	0.028307818
225	0xbc5399f2	-0.012915121
226	0xb89abb0d	-7.378133e-05
227	0xbc31d7c5	-0.010854666
228	0xbcde0ef8	-0.027106747
229	0x3ba64714	0.005074391
230	0x3ca22f5a	0.01979797
231	0xbb9477c7	-0.00453088
232	0xbc90a3e8	-0.017656282
233	0xbc5b5a2d	-0.013388199
234	0x3ae1d927	0.0017230854
235	0x3d221647	0.039572027
236	0xbb271fd7	-0.0025501156
237	0x3d014d12	0.03156764
238	0xbc9237ae	-0.017848816
239	0x3bd59419	0.0065178988
240	0x3ce8c1c9	0.028412716
241	0xbc974a0b	-0.018467924
242	0xbcae3504	-0.021265514
243	0x3c604aad	0.013689679
244	0xbc0b9d80	-0.008521438
245	0xbc2d51bb	-0.010578568
246	0x3c40399d	0.011732486
247	0xbccbac1d	-0.024862343
248	0xbc97fb5c	-0.018552475
249	0xbccc9be5	-0.02497668
250	0xbc41f7b2	-0.01183884
251	0xbb928b9f	-0.0044722105
252	0x3c7378d4	0.014860351
253	0xbc4d2092	-0.012519972
254	0x3ccd3591	0.025049957
255	0xbbb1c3b4	-0.005424941

layer3.bias f4 [20]
0	0xbc637aad	-0.013884229
1	0xb9b98ff2	-0.00035393197
2	0x3c964764	0.018344589
3	0xbcab2102	-0.020889763
4	0x3bb52265	0.005527782
5	0x3bf65135	0.007517005
6	0x3c56f874	0.013120759
7	0x3b10acd4	0.002207567
8	0x3c848ef1	0.016181441
9	0x3bb7ecd3	0.0056129484
10	0xbc46645d	-0.012108889
11	0xbcd1045e	-0.025514778
12	0x3ced04e1	0.02893299
13	0xb915aa0f	-0.00014273099
14	0xbc8f677a	-0.017505396
15	0x3be85bfa	0.0070910426
16	0xba87663a	-0.0010330149
17	0x3c823a1d	0.015896851
18	0xbca82930	-0.020527452
19	0xbb7934d2	-0.0038025868
