saved/mlp.pt (torch, 166325 bytes, 14 tensors)

layer1.weight f4 [128, 100]
0	0xbf607651	-0.87680537
1	0x3f332cf1	0.6999045
2	0x3f4906b3	0.7852585
3	0x3f3fba23	0.748934
4	0xbf2b166f	-0.66831106
5	0x3f3e8e8d	0.74436265
6	0x3f3af405	0.73028594
7	0xbefdd34f	-0.49575278
8	0x3f29de17	0.6635451
9	0xbf3457b2	-0.7044631
10	0x3f018fe7	0.506102
11	0x3f6f68b0	0.93519115
12	0xbf2e91f6	-0.6819147
13	0xbf3cd066	-0.7375549
14	0xbf191c3b	-0.598087
15	0xbf375be2	-0.7162458
16	0x3f5fe1c4	0.87453866
17	0x3f515707	0.8177342
18	0x3f5ba218	0.8579421
19	0xbf457a48	-0.7713971
20	0x3f69ef06	0.91380346
21	0x3f36fc9e	0.71479213
22	0x3ea2e56c	0.3181566
23	0xbf4cf485	-0.8006061
24	0x3e2c9b4d	0.16856118
25	0x3ea23adb	0.31685528
26	0x3f3fcacd	0.74918824
27	0xbf39cddc	-0.7257974
28	0xbf601f69	-0.8754793
29	0xbe1bc988	-0.15213597
30	0xbf483d30	-0.78218365
31	0x3f33893d	0.70131284
32	0x3f3e19d4	0.7425816
33	0x3f311686	0.69174993
34	0xbf2e119a	-0.6799561
35	0x3f643102	0.8913728
36	0xbef81dc1	-0.484602
37	0xbf2005ef	-0.62509054
38	0xbf5733d8	-0.8406348
39	0x3ee0f3d0	0.43936014
40	0xbef78c5b	-0.4834927
41	0x3f3b55b1	0.7317763
42	0xbf3cd3dc	-0.7376077
43	0xbf527f96	-0.8222593
44	0xbf000b8c	-0.5001762
45	0xbf372751	-0.7154437
46	0x3f04d6fc	0.5189054
47	0x3f69164e	0.9104966
48	0x3f57c529	0.8428522
49	0xbe0cbb2e	-0.13743278
50	0x3f612763	0.87950724
51	0xbf3df89a	-0.7420746
52	0xbf39d088	-0.7258382
53	0xbf40f165	-0.7536834
54	0x3f0f7e9c	0.56052566
55	0xbf29d7ae	-0.66344726
56	0x3ec3b2df	0.38222405
57	0xbf4a6f8f	-0.79076475
58	0xbf2e7b46	-0.6815685
59	0xbf2b434b	-0.66899556
60	0xbf4ea31a	-0.80717623
61	0xbf381941	-0.71913534
62	0x3f6a2f36	0.9147829
63	0x3f37a1c7	0.7173123
64	0xbf030192	-0.5117427
65	0x3f4cd8ea	0.80018485
66	0xbf3c1e41	-0.73483664
67	0xbf314170	-0.69240475
68	0xbf431b05	-0.76213104
69	0x3f00b501	0.5027619
70	0xbf413adc	-0.7548044
71	0xbf02f9b1	-0.5116225
72	0xbf593d9f	-0.8485965
73	0xbf29f207	-0.6638493
74	0xbf2189d3	-0.6310093
75	0xbf56b611	-0.8387156
76	0x3f1b1bab	0.6058909
77	0x3f63355c	0.88753295
78	0x3f346ed0	0.70481586
79	0xbf395564	-0.7239592
80	0x3f40c474	0.75299764
81	0xbeaf5c86	-0.34250277
82	0xbf4b06b7	-0.7930712
83	0xbf50216c	-0.81301
84	0xbec04a13	-0.37556514
85	0x3dbcb483	0.092141174
86	0x3f03c558	0.51473
87	0xbf4d5935	-0.80214244
88	0xbf1180b9	-0.5683704
89	0xbf273dbd	-0.6532858
90	0xbf422229	-0.75833374
91	0x3e1494d0	0.14509892
92	0x3f6b3404	0.91876245
93	0x3f401639	0.7503391
94	0xbeec412b	-0.4614347
95	0x3f627b6b	0.8846957
96	0x3f065f99	0.5248962
97	0xbf660460	-0.89850426
98	0xbf4c76f1	-0.7986899
99	0xbe68aac4	-0.22721392
100	0x3f4b4540	0.7940254
101	0xbf7a8ce4	-0.9787123
102	0xbf242b41	-0.641285
103	0xbef64be8	-0.48104787
104	0x3f05318e	0.5202874
105	0x3f537254	0.82596326
106	0xbf44c3e6	-0.7686142
107	0xbf0c8467	-0.5488953
108	0xbe9ccd22	-0.30625254
109	0x3f4c1cd7	0.79731506
110	0xbf4a4a09	-0.7901922
111	0x3f49b2f8	0.7878871
112	0xbeff31c8	-0.49842668
113	0x3f44fde8	0.7694993
114	0xbf3a2f5d	-0.7272852
115	0x3f41ae1d	0.756563
116	0xbf5519b4	-0.83242345
117	0xbdccf50b	-0.10007676
118	0x3f189612	0.5960399
119	0x3e3b88cd	0.18313904
120	0xbe8c2c7c	-0.2737769
121	0x3e487292	0.19574955
122	0x3b93107a	0.004488048
123	0xbf53baba	-0.827068
124	0x3f60f00d	0.8786629
125	0xbf353191	-0.7077876
126	0x3f11cc5a	0.5695244
127	0xbea15c02	-0.3151551
128	0x3f2f7ebb	0.6855275
129	0xbf4bd9f5	-0.7962945
130	0x3f5633bf	0.8367271
131	0xbf42e46e	-0.76129806
132	0x3ef71bb7	0.48263332
133	0x3f1bc0e6	0.60841215
134	0xbf2655f5	-0.6497491
135	0xbf16706f	-0.5876531
136	0xbf15b417	-0.5847792
137	0x3ef64702	0.4810105
138	0xbf5c8572	-0.8614112
139	0x3f4ad4f3	0.79231185
140	0xbf24b810	-0.6434336
141	0x3f55a973	0.83461684
142	0xbf3e8749	-0.7442518
143	0x3f2c6f77	0.6735758
144	0xbf41c24e	-0.7568711
145	0x3f43dc5e	0.7650813
146	0xbf561775	-0.8362954
147	0xbf469b48	-0.7758069
148	0xbe7dac27	-0.24772702
149	0xbf26462d	-0.6495083
150	0xbf039866	-0.51404417
151	0x3f132add	0.5748728
152	0xbe995ba0	-0.29952717
153	0xbf080f54	-0.5314839
154	0x3f39cfd5	0.7258275
155	0x3e80bd49	0.25144413
156	0x3f5423b9	0.8286701
157	0xbf548a8a	-0.83023894
158	0x3f3931de	0.72341716
159	0xbf402d4b	-0.7506911
160	0x3f3eb390	0.7449274
161	0xbf55b70f	-0.8348245
162	0xbdec84e1	-0.11548782
163	0x3f3e2986	0.7428211
164	0xbf2e867d	-0.6817396
165	0x3e9cd2bc	0.30629528
166	0x3f39b389	0.72539574
167	0xbeed7231	-0.46376184
168	0xbef96bed	-0.48715153
169	0x3f353102	0.70777905
170	0xbf1e34d2	-0.6179935
171	0x3f581b64	0.84416795
172	0xbf74fc66	-0.9569763
173	0x3f414cfb	0.7550809
174	0xbf4368fb	-0.7633206
175	0x3f4daf1a	0.8034531
176	0xbf399b60	-0.7250271
177	0xbf337570	-0.7010107
178	0x3f3b4878	0.73157454
179	0xbf51f43c	-0.820133
180	0x3f08f6d4	0.5350163
181	0x3f59dc12	0.85101426
182	0x3e9639b9	0.29340914
183	0xbf358d70	-0.7091894
184	0x3f47b1c4	0.78005624
185	0xbf45d039	-0.7727085
186	0x3f4f7bc4	0.81048226
187	0xbf3cd877	-0.737678
188	0x3ea50ed3	0.32237872
189	0xbe258d0a	-0.16167083
190	0x3f37ea11	0.7184153
191	0xbf65f949	-0.89833504
192	0xbe035a51	-0.12827422
193	0x3f6080a9	0.8769632
194	0xbf49468f	-0.7862329
195	0x3f064097	0.52442306
196	0x3f3c8b87	0.736504
197	0x3e0c90a3	0.1372705
198	0xbf0afda6	-0.54293287
199	0x3e4a57b4	0.19760019
200	0xbf6d5425	-0.9270652
201	0xbcc85272	-0.024453375
202	0x3cfb86ed	0.030703986
203	0x3f5ef8bb	0.8709828
204	0xbefafd0d	-0.49021187
205	0x3f655a23	0.8959066
206	0xbf2834c3	-0.6570551
207	0xbf22a4b6	-0.6353258
208	0x3f6a2731	0.9146605
209	0xbf67be3d	-0.90524656
210	0xbf500a56	-0.8126577
211	0x3f69d651	0.91342646
212	0x3f569065	0.8381408
213	0x3f47560f	0.7786569
214	0xbf518ca1	-0.8185521
215	0xbf50eaf9	-0.8160854
216	0x3f434354	0.7627461
217	0x3e72035b	0.23634093
218	0x3f51138f	0.8167047
219	0xbebb8e7e	-0.3663215
220	0x3f4b09e9	0.79311997
221	0xbed3b3bf	-0.41348073
222	0xbf3ce7c8	-0.7379117
223	0x3f4d7447	0.8025555
224	0xbf5ce133	-0.86281127
225	0xbf3d9a45	-0.7406352
226	0x3f443d6e	0.76656234
227	0x3f49cc05	0.78826934
228	0x3d8128a8	0.06306583
229	0xbf28710e	-0.6579751
230	0xbf482a6f	-0.7818975
231	0x3f1e845a	0.619207
232	0x3eab24d0	0.33426523
233	0x3f1ca4ef	0.6118917
234	0x3f3f9755	0.7484029
235	0x3f4cd08c	0.8000572
236	0xbf55b2bb	-0.83475846
237	0xbf0efab1	-0.55851275
238	0x3e55fff3	0.20898418
239	0xbea9ea35	-0.33186498
240	0xbf4857ab	-0.7825877
241	0x3f5fd966	0.874411
242	0x3f418e86	0.756081
243	0x3f1c6d8a	0.61104643
244	0x3f36c7b2	0.7139846
245	0x3f2e3bd9	0.6806007
246	0xbf3a07e9	-0.7266832
247	0xbf34e812	-0.7066661
248	0xbf4f3256	-0.8093618
249	0x3ee73026	0.45153922
250	0x3f624591	0.883874
251	0xbf2c2e72	-0.6725837
252	0x3e75d05c	0.24005264
253	0x3f5a178b	0.85192174
254	0xbece80ed	-0.40332738
255	0xbf33cc01	-0.7023316

layer1.bias f4 [128]
0	0xbf456687	-0.7710957
1	0xbed6c1d2	-0.41944748
2	0xbf1d318d	-0.61403733
3	0x3f30dbd6	0.69085443
4	0xbe88c510	-0.26712847
5	0xbf24d9e7	-0.6439499
6	0xbece15bd	-0.4025096
7	0xbf41d504	-0.7571566
8	0xbf652fed	-0.89526254
9	0xbba37ca9	-0.004989226
10	0xbf5a6429	-0.8530908
11	0xbf40c9ce	-0.7530793
12	0xbf66e322	-0.9019033
13	0xbf2f8882	-0.6856767
14	0xbee36726	-0.44414634
15	0xbf425626	-0.759127
16	0xbc6ea7ba	-0.014566356
17	0xbf20e6a9	-0.6285196
18	0xbef9ba75	-0.48775068
19	0xbf066590	-0.5249872
20	0x3ef16920	0.47150517
21	0xbf3245f0	-0.69637966
22	0xbf6559f6	-0.89590394
23	0xbf77de82	-0.96823895
24	0x3de18eb8	0.110135496
25	0xbf705128	-0.93873835
26	0x3f1e1111	0.6174479
27	0x3e479527	0.19490491
28	0xbf40784f	-0.75183576
29	0xbf411b0a	-0.75431883
30	0xbd3ab459	-0.04558215
31	0xbf4ef65a	-0.8084465
32	0xbf50e303	-0.8159639
33	0xbf384f2b	-0.719958
34	0xbf26ea5d	-0.6520136
35	0xbf4f76cb	-0.8104064
36	0x3f111dcf	0.5668611
37	0x3f57aa7e	0.84244525
38	0xbef5ade9	-0.47984245
39	0xbf55d0a1	-0.8352147
40	0x3f26f4a2	0.6521703
41	0xbef4e4d5	-0.47830835
42	0xbf51df71	-0.8198157
43	0xbf16c7e3	-0.5889875
44	0xbf2b8d7a	-0.6701275
45	0x3e8b6895	0.27228227
46	0xbf4dd987	-0.80410045
47	0xbc7c171a	-0.015386367
48	0xbf0173ca	-0.50567305
49	0xbf4d98bc	-0.8031118
50	0xbf34653c	-0.7046697
51	0xbf50c7b4	-0.8155472
52	0xbf377442	-0.7166177
53	0xbf3af573	-0.73030776
54	0x3dd92ebc	0.10604617
55	0xbed4e89a	-0.4158371
56	0xbf4babea	-0.79559195
57	0x3f2b3475	0.6687692
58	0xbf237e23	-0.63864344
59	0xbf3bcd4a	-0.7336012
60	0xbf3cc731	-0.7374144
61	0xbf3a06fd	-0.72666913
62	0xbf58611c	-0.8452318
63	0x3f1b4c1f	0.60663027
64	0xbf225ae0	-0.63419914
65	0xbf5f76bf	-0.8729057
66	0xbf2766e9	-0.65391403
67	0xbf6a6c80	-0.9157181
68	0x3f50e288	0.8159566
69	0xbf3996e0	-0.7249584
70	0x3f1c15a0	0.609705
71	0x3eed3aa7	0.4633381
72	0xbf652ce3	-0.89521617
73	0xbece277d	-0.40264502
74	0x3f40853c	0.752033
75	0xbf0c68ff	-0.5484771
76	0xbf37b113	-0.7175457
77	0x3f306bdf	0.689146
78	0xbeb1197c	-0.34589756
79	0xbf540166	-0.82814634
80	0x3ea48eaf	0.3214011
81	0x3f4020d1	0.75050074
82	0xbf34cd39	-0.70625645
83	0x3f504106	0.8134922
84	0xbf1d86ee	-0.6153401
85	0xbf44796f	-0.7674779
86	0xbf483309	-0.78202873
87	0x3eeb1879	0.4591711
88	0xbf4e2bc2	-0.8053552
89	0xbf5e33b9	-0.8679767
90	0xbf42786f	-0.7596502
91	0xbf228154	-0.6347859
92	0x3efa31fe	0.48866266
93	0xbe63e216	-0.22254214
94	0x3f43d20c	0.7649238
95	0xbf4fef5f	-0.81224626
96	0xbe978ec1	-0.296011
97	0xbf40df63	-0.7534086
98	0xbd51631a	-0.0511199
99	0xbf0a127a	-0.53934443
100	0xbf669a6a	-0.9007937
101	0xbf30a6bb	-0.6900441
102	0x3f514a2f	0.8175382
103	0xbf1eb44c	-0.6199386
104	0x3e41eda5	0.1893831
105	0xbf2d6a6b	-0.67740506
106	0xbf3c7e57	-0.7363028
107	0xbf5fe102	-0.8745271
108	0x3f4615cf	0.7737703
109	0xbf426991	-0.7594233
110	0xbf4bce76	-0.7961191
111	0xbf551653	-0.8323719
112	0xbf08c58e	-0.53426445
113	0xbf4e1f85	-0.80516845
114	0xbf4304b0	-0.7617903
115	0x3efccdfa	0.49375898
116	0xbf61b31c	-0.88163924
117	0x3eaa5268	0.33265996
118	0x3f5b4423	0.85650843
119	0xbf4db68c	-0.8035667
120	0xbf593b87	-0.84856457
121	0xbd1aff69	-0.037841234
122	0x3f3eb6aa	0.74497473
123	0xbf2162e4	-0.6304152
124	0xbf081999	-0.5316406
125	0xbe0bcfa5	-0.13653429
126	0xbf359e40	-0.70944595
127	0x3f41f564	0.7576506

bn1.weight f4 [15]
0	0x3ff208e8	1.8908968
1	0x3ff50a04	1.9143682
2	0x3ff2ed8d	1.8978745
3	0x3ff16acb	1.8860716
4	0x3fed7818	1.8552275
5	0x3fee3a0e	1.8611467
6	0x3fdc3ad4	1.7205453
7	0x3ff5e278	1.9209738
8	0x3fcfd92d	1.6238152
9	0x3fd22c76	1.6419818
10	0x3ff6a130	1.926794
11	0x3fed5c48	1.8543787
12	0x3ff12964	1.8840756
13	0x3fecf8b3	1.8513397
14	0x3fcc4a3f	1.5960158

bn1.bias f4 [15]
0	0x3c952902	0.01820803
1	0x3dec525f	0.115391485
2	0x3db15453	0.08658662
3	0x3e81a922	0.2532435
4	0x3cdab781	0.02669883
5	0x3e9e749d	0.30948344
6	0x3f1a879c	0.60363173
7	0x3ec38302	0.3818589
8	0x3ec15a4f	0.37764212
9	0x3eee8017	0.465821
10	0x3ea5a376	0.32351273
11	0x3e95c10d	0.2924885
12	0x3e784008	0.24243176
13	0x3dede866	0.11616592
14	0x3e3664b1	0.17811848

bn1.running_mean f4 [15]
0	0x4106e43d	8.430722
1	0x4121e318	10.117943
2	0x41392d30	11.573532
3	0x412c96be	10.786802
4	0x412ef3ef	10.934554
5	0x413da3e8	11.852516
6	0x412daf59	10.8553095
7	0x412e020b	10.875499
8	0x413e7bc0	11.905212
9	0x4129fd70	10.624374
10	0x412b3c38	10.702202
11	0x41371dcc	11.444775
12	0x41272e0a	10.44874
13	0x411fcdd7	9.987754
14	0x41129f87	9.163947

bn1.running_var f4 [15]
0	0x434e7bcb	206.48357
1	0x4389bd96	275.48114
2	0x43a48e36	329.11102
3	0x439a7584	308.9181
4	0x439c59c4	312.7013
5	0x43a8cf2f	337.61862
6	0x439d184f	314.1899
7	0x439a6e7f	308.86325
8	0x43ac941c	345.1571
9	0x43966b7f	300.8398
10	0x43985702	304.67975
11	0x43a026a8	320.302
12	0x43907104	288.88293
13	0x43849c4c	265.22107
14	0x4365f7c3	229.96782

layer2.weight f4 [64, 128]
0	0x3f34fb8b	0.70696324
1	0x3f1aa159	0.60402447
2	0xbf41ad51	-0.75655085
3	0x3f4953d3	0.7864353
4	0x3f4dcb65	0.8038848
5	0xbf3c1228	-0.73465204
6	0xbf4bf09a	-0.79664004
7	0x3f24dd7a	0.64400446
8	0xbf32cdf4	-0.6984551
9	0xbf54c842	-0.8311807
10	0x3f496179	0.78664356
11	0xbf31686d	-0.69299966
12	0xbf514f3a	-0.81761515
13	0x3e920125	0.28516498
14	0xbf3e5953	-0.7435505
15	0x3ea8e8d9	0.3299015
16	0xbf17c7c1	-0.59289175
17	0xbf3b5cde	-0.7318858
18	0x3eae6720	0.34063053
19	0xbf582e10	-0.84445286
20	0x3ee6d018	0.45080638
21	0xbf3070d8	-0.68922186
22	0x3ed90f95	0.423947
23	0x3f0d6eb4	0.55247045
24	0x3ee613b4	0.44936907
25	0x3f649bb2	0.8930007
26	0xbf3f7a62	-0.74796116
27	0x3ee38757	0.44439194
28	0x3f12c2f2	0.5732871
29	0xbf0b9f15	-0.54539615
30	0x3e8f6d4b	0.2801307
31	0x3dafff86	0.08593659
32	0xbec85038	-0.39123702
33	0xbf4f3828	-0.8094506
34	0xbf4f45cc	-0.80965877
35	0xbecc9c08	-0.39962792
36	0xbf579097	-0.84205
37	0xbf36e2e8	-0.7143998
38	0xbf25f3e9	-0.648253
39	0xbf3a2c92	-0.7272426
40	0x3f2b84bf	0.6699943
41	0x3f2ec8ea	0.6827532
42	0xbf3b2a19	-0.7311111
43	0x3f305438	0.6887851
44	0xbf456279	-0.7710338
45	0x3f22339f	0.6336002
46	0xbf258ec6	-0.6467098
47	0x3f568dfa	0.8381039
48	0xbf51b1d4	-0.8191197
49	0x3f2d825e	0.6777705
50	0x3e6746ab	0.22585551
51	0xbf538153	-0.8261921
52	0xbf0138df	-0.50477403
53	0xbf358d84	-0.7091906
54	0x3f6930a5	0.9108985
55	0xbf0f18e9	-0.55897385
56	0x3f489d3a	0.7836491
57	0xbf6890e4	-0.90846086
58	0x3ed1b66c	0.4095949
59	0x3f2449a2	0.64174855
60	0xbf4914fa	-0.7854763
61	0x3eec7652	0.4618402
62	0x3f0ca3cd	0.5493744
63	0xbf135e34	-0.5756562
64	0x3f1386cf	0.57627577
65	0x3f47f76f	0.7811193
66	0xbcec6544	-0.028856881
67	0xbdd1cef4	-0.10244551
68	0x3f3668b8	0.7125354
69	0x3f1e0eef	0.61741537
70	0xbf64fab9	-0.8944507
71	0xbf206463	-0.6265318
72	0x3f48979e	0.7835635
73	0x3f37df07	0.7182469
74	0xbf1f060f	-0.6211862
75	0x3f6e077b	0.92980164
76	0x3f1d05a2	0.6133672
77	0x3d82432e	0.0636047
78	0x3f44b058	0.7683158
79	0xbf5a7899	-0.8534027
80	0x3f62f433	0.8865387
81	0xbf14e323	-0.58159083
82	0xbf241228	-0.64090204
83	0x3f4c4702	0.7979585
84	0xbf33cca8	-0.70234156
85	0xbf478bf1	-0.7794791
86	0x3f4b72ea	0.7947222
87	0x3f47a2f6	0.77983034
88	0x3f4fbccd	0.8114746
89	0x3ebc8320	0.3681879
90	0x3f5789e9	0.8419481
91	0xbe8f8431	-0.28030542
92	0xbf31b443	-0.6941568
93	0xbe0d1bac	-0.13780087
94	0xbf35945a	-0.7092949
95	0x3edcdd84	0.43137753
96	0x3ec6309a	0.38708955
97	0xbf41dcbe	-0.7572745
98	0xbe942a90	-0.28938723
99	0x3ee841c9	0.4536269
100	0xbf0d01a8	-0.5508065
101	0xbf5177d5	-0.81823474
102	0xbe41531b	-0.18879358
103	0x3f48fbe2	0.7850934
104	0xbf09eef4	-0.5388024
105	0xbeeb8c12	-0.46005303
106	0xbf14bf0b	-0.5810401
107	0x3b5045e5	0.0031779942
108	0xbef2c54d	-0.47416154
109	0x3f0c5739	0.5482059
110	0xbe4e8438	-0.20167625
111	0x3f31f3ac	0.6951244
112	0xbecaf490	-0.3963971
113	0xbef2fc26	-0.47458
114	0xbf3cbc0e	-0.7372445
115	0xbf0780fe	-0.529312
116	0xbf3f6679	-0.74765736
117	0x3f3e1314	0.7424786
118	0x3efa6258	0.48903155
119	0x3f21fe7b	0.6327893
120	0x3e8acc49	0.27108982
121	0x3f3666f6	0.71250856
122	0xbf433564	-0.7625334
123	0x3ec8315e	0.39100164
124	0xbf4249dd	-0.75893956
125	0x3f52fa0a	0.8241278
126	0x3f47e099	0.78077084
127	0xbf592125	-0.848162
128	0xbe56e388	-0.20985234
129	0xbf29a155	-0.662618
130	0xbf16c0da	-0.5888802
131	0x3f204923	0.626116
132	0xbf5d24d7	-0.8638434
133	0x3f4f241b	0.8091447
134	0xbf5774b9	-0.8416248
135	0x3f34cf8d	0.706292
136	0xbe67095f	-0.22562169
137	0xbf3a64a0	-0.7280979
138	0xbf566c7f	-0.837593
139	0xbf550f53	-0.8322651
140	0xbf3ae2f1	-0.73002535
141	0x3e606776	0.21914467
142	0xbf5cbdb6	-0.86226976
143	0x3f42dee3	0.7612135
144	0x3e8327f9	0.25616434
145	0x3f3d9c1e	0.7406634
146	0x3f4e041d	0.80475026
147	0x3f14fd12	0.58198655
148	0x3f3b08ae	0.7306012
149	0xbf465471	-0.774726
150	0xbf3baf9e	-0.73314846
151	0xbf40a328	-0.75248957
152	0x3e74868f	0.23879455
153	0xbf4bcb6a	-0.7960726
154	0xbf441ed7	-0.7660956
155	0xbf5cc1a7	-0.8623299
156	0xbed95d5a	-0.42454034
157	0x3f2ddaf3	0.67912215
158	0xbf22c3c7	-0.6357998
159	0xbf5b9449	-0.8577314
160	0xbf480485	-0.78131896
161	0x3e089d7c	0.13341326
162	0x3f3fc183	0.7490465
163	0xbf6710b2	-0.9025985
164	0xbf54541b	-0.82940835
165	0x3d193e58	0.03741297
166	0xbf395407	-0.7239384
167	0xbf597381	-0.8494187
168	0x3f3e3569	0.7430025
169	0x3f15b8d3	0.58485144
170	0xbf3ffa58	-0.7499137
171	0xbf45b157	-0.77223724
172	0x3d61a18f	0.055085715
173	0xbf62ddc1	-0.8861962
174	0x3f1b4fed	0.6066883
175	0xbf408097	-0.7519621
176	0xbf36358a	-0.71175444
177	0xbf454fa2	-0.77074635
178	0xbf278be7	-0.6544785
179	0x3f3d6135	0.7397645
180	0xbf5a082e	-0.8516873
181	0x3eb42934	0.35187685
182	0x3f2954e4	0.6614516
183	0xbe3e849e	-0.18605277
184	0xbf6fd83c	-0.9368932
185	0xbf3a4d7f	-0.727745
186	0xbf3c2a07	-0.7350163
187	0x3f2ebf5a	0.6826073
188	0xbf58272e	-0.84434783
189	0xbf58bf61	-0.8466702
190	0xbe55ed02	-0.20891193
191	0xbcbaad2f	-0.022787658
192	0x3ed46f57	0.41491196
193	0xbf5c3f58	-0.86034155
194	0xbb71c606	-0.0036891713
195	0xbe11d84b	-0.14242665
196	0xbf454bed	-0.7706898
197	0xbf578aae	-0.84195983
198	0x3f458fc9	0.77172524
199	0x3f543b93	0.82903403
200	0xbf4a0ebb	-0.78928727
201	0x3f4ee768	0.8082185
202	0x3f660cfb	0.89863557
203	0x3f2138b1	0.6297713
204	0xbe8e744e	-0.27823108
205	0x3f1b5fce	0.6069306
206	0x3f5b8871	0.8575507
207	0x3f398c7a	0.72479975
208	0xbf51c81c	-0.8194597
209	0x3f5edf6b	0.8705966
210	0xbf59d780	-0.8509445
211	0xbf600a5a	-0.87515795
212	0x3f0b79f7	0.5448298
213	0x3f0944c2	0.5362054
214	0x3f1b86aa	0.60752356
215	0xbf232bc1	-0.6373864
216	0x3f3bd1ba	0.7336689
217	0x3f08d58a	0.53450835
218	0x3ee70012	0.4511724
219	0xbf20b908	-0.62782335
220	0x3d88ae21	0.066738375
221	0xbeaff9f1	-0.34370378
222	0xbf644c15	-0.8917859
223	0xbf328026	-0.6972679
224	0xbf2ab927	-0.6668877
225	0xbe9d3af7	-0.3070905
226	0xbf6a9134	-0.9162781
227	0xbf4ec759	-0.8077293
228	0x3f46346e	0.7742375
229	0x3f58ffc9	0.847653
230	0x3f438df1	0.7638846
231	0xbf39f022	-0.7263204
232	0xbdfa84f7	-0.12232392
233	0x3f15252d	0.5825985
234	0x3f661b09	0.89885
235	0x3e96265c	0.2932614
236	0xbe66eea7	-0.22551976
237	0xbf652cbc	-0.89521384
238	0x3f0200f8	0.5078273
239	0xbf5748ea	-0.84095633
240	0x3f21e980	0.6324692
241	0x3f626635	0.88437206
242	0xbf375edb	-0.7162911
243	0xbf1a4273	-0.60257643
244	0x3f414f81	0.7551194
245	0xbed54cc3	-0.41660127
246	0xbf5179d4	-0.8182652
247	0x3e6259a9	0.22104515
248	0xbf63de2b	-0.89010876
249	0xbec99b47	-0.3937628
250	0x3f46fa3a	0.77725565
251	0xbf45ed1f	-0.77314943
252	0x3f2c8247	0.6738629
253	0xbf36e423	-0.7144186
254	0xbf446465	-0.7671569
255	0xbf666ed6	-0.9001287

layer2.bias f4 [64]
0	0xbf66e0c2	-0.90186703
1	0x3f2f078f	0.6837091
2	0xbeee7fe1	-0.4658194
3	0x3f6162d0	0.880414
4	0xbece1871	-0.40253022
5	0x3f5e51e1	0.8684369
6	0xbf2eba0a	-0.68252623
7	0x3ed4d26d	0.41566792
8	0x3eecd537	0.4625642
9	0x3f2ea0ae	0.6821393
10	0xbf5b7801	-0.85729986
11	0x3f2cf4f0	0.67561245
12	0xbf71d7a4	-0.94469666
13	0xbf1c0638	-0.6094699
14	0xbf47575b	-0.7786767
15	0x3f5ca627	0.8619103
16	0xbf4900d8	-0.7851691
17	0x3d490a73	0.04908223
18	0x3f1213a4	0.5706122
19	0xbf14a389	-0.58062035
20	0x3f2352a3	0.6379797
21	0xbf03d7ea	-0.51501334
22	0x3f25c1a3	0.6474859
23	0xbe9bcd25	-0.3042995
24	0xbf2a72e1	-0.6658154
25	0xbe39a8df	-0.18130825
26	0x3f3aa3c5	0.7290614
27	0x3f4b7187	0.79470104
28	0x3f463856	0.7742971
29	0x3f5bb902	0.85829175
30	0xbee44ec7	-0.44591352
31	0xbf5e2ec4	-0.8679011
32	0x3f40f547	0.75374264
33	0xbf1ee73b	-0.6207158
34	0x3f274988	0.65346575
35	0xbefc82de	-0.49318594
36	0xbf2ba391	-0.6704646
37	0x3f365b63	0.71233195
38	0xbf09b7a7	-0.53795856
39	0xbf06090a	-0.5235754
40	0x3f6771ea	0.90408194
41	0xbf016d03	-0.50556964
42	0xbf1c36e7	-0.61021274
43	0x3f03555b	0.5130212
44	0x3f1f54d3	0.62238806
45	0xbf63bd1d	-0.8896044
46	0xbee07163	-0.43836507
47	0x3ea11e33	0.31468353
48	0x3f29f815	0.6639417
49	0xbf0c90ee	-0.54908645
50	0xbf26a531	-0.6509581
51	0xbf372010	-0.715333
52	0xbf4a66d8	-0.7906318
53	0x3f38c96d	0.7218235
54	0x3f27fd99	0.65621334
55	0xbec14dbf	-0.37754628
56	0x3f11c71a	0.5694443
57	0xbf1cef49	-0.6130262
58	0xbf488656	-0.7832998
59	0xbf364c38	-0.7121005
60	0xbf5e39cd	-0.86806947
61	0xbe8e5c96	-0.27805012
62	0xbf24b317	-0.6433577
63	0x3f3ff6b6	0.74985826

bn2.weight f4 [15]
0	0x3dd9f226	0.10641889
1	0x3e2713d5	0.16316159
2	0x3e025d48	0.12730896
3	0x3e260e98	0.16216505
4	0x3e2ecde4	0.17070729
5	0x3e1e5965	0.15463789
6	0x3e56f2f3	0.20991115
7	0x3e2edab3	0.17075615
8	0x3e75d2a2	0.24006131
9	0x3e1d55b4	0.15364724
10	0x3e33e4cf	0.17567752
11	0x3e246597	0.16054378
12	0x3e087b31	0.13328244
13	0x3e032bc5	0.12809666
14	0x3dd0e586	0.10200028

bn2.bias f4 [15]
0	0x3d0b0823	0.033943307
1	0x3c830640	0.015994191
2	0x39df84ef	0.00042632918
3	0x3c78ec3b	0.0151930405
4	0xbceeadef	-0.029135672
5	0x3ca9bcb6	0.020719867
6	0x3db813e8	0.08988172
7	0x3d8fedbc	0.07027766
8	0x3d485c73	0.04891629
9	0xbc4c8b6d	-0.012484414
10	0xb9b58acc	-0.00034626422
11	0xbd0963f4	-0.03354259
12	0x3d765c59	0.060146663
13	0xbb808b19	-0.0039228317
14	0xbcadc55d	-0.021212274

bn2.running_mean f4 [15]
0	0x40d41186	6.627139
1	0x40ecf644	7.4050617
2	0x40dae12f	6.839988
3	0x40d24ad1	6.571633
4	0x40f1f67c	7.5613384
5	0x40cf7f1d	6.4842668
6	0x40ad5422	5.41652
7	0x40e35781	7.1044316
8	0x40ae5e68	5.449024
9	0x40aa564f	5.3230357
10	0x40e84bf9	7.259274
11	0x40cc9c05	6.3940454
12	0x40cf6796	6.481395
13	0x40e64919	7.196423
14	0x40a77766	5.233325

bn2.running_var f4 [15]
0	0x42eb4ebb	117.65377
1	0x430631d6	134.19467
2	0x430a0e0f	138.05492
3	0x42f944e0	124.63452
4	0x4304cd46	132.80185
5	0x43014b83	129.29497
6	0x42c1ab09	96.83405
7	0x4302bf46	130.74716
8	0x42c13722	96.60768
9	0x42b34e6e	89.65318
10	0x4306fe82	134.99417
11	0x42fbad27	125.83819
12	0x42ef5521	119.66627
13	0x43001dc6	128.1163
14	0x42ae0325	87.00614

layer4.weight f4 [20, 960]
0	0xbf4a1f9a	-0.7895447
1	0x3f4881c4	0.78323007
2	0xbf48319d	-0.78200704
3	0xbf4539f2	-0.7704154
4	0xbf3cfafe	-0.73820484
5	0x3f50460d	0.8135689
6	0x3f2aa54d	0.6665848
7	0xbf46b7e6	-0.77624357
8	0x3f469049	0.7756391
9	0x3f3511e4	0.70730424
10	0xbf49258f	-0.78572935
11	0xbf5b6626	-0.8570274
12	0x3eb596bd	0.35466567
13	0x3f076527	0.5288872
14	0x3f0c2587	0.5474476
15	0x3e85376a	0.2601884
16	0xbea83381	-0.32851794
17	0xbf51bdcb	-0.81930226
18	0x3f3ddc43	0.7416422
19	0x3f377f39	0.716785
20	0x3f33dea1	0.7026158
21	0x3f224c31	0.6339751
22	0x3e02f4ae	0.1278865
23	0x3f160d77	0.58614296
24	0x3f08f8a3	0.5350439
25	0x3f43b825	0.7645286
26	0x3d315463	0.043293368
27	0xbf2f7233	-0.6853363
28	0xbf4a6f60	-0.79076195
29	0x3eed9877	0.46405384
30	0x3f3c67f3	0.73596114
31	0x3f2aa5f3	0.6665947
32	0x3e2bf43d	0.16792388
33	0xbf4d7802	-0.8026124
34	0x3d9a3afe	0.07530783
35	0xbf44b0ef	-0.7683248
36	0xbf3d1208	-0.7385564
37	0x3f533c9f	0.82514375
38	0x3f18676a	0.595328
39	0x3e473269	0.19452824
40	0x3f2b96cd	0.6702698
41	0xbf554ade	-0.83317363
42	0xbf447edb	-0.76756066
43	0x3f3c6361	0.7358914
44	0x3ef2722c	0.4735273
45	0x3e720933	0.23636322
46	0xbf5012ba	-0.81278574
47	0xbed5830e	-0.4170155
48	0xbeb84ebc	-0.3599757
49	0x3f355366	0.7083038
50	0x3f432300	0.7622528
51	0x3f3f8906	0.74818456
52	0xbf386008	-0.7202153
53	0x3f3eb70d	0.74498063
54	0x3ec7f5ef	0.3905482
55	0x3f25e9e0	0.6480999
56	0x3f4d8cac	0.80292773
57	0x3f00cb2a	0.50310004
58	0xbf4635d6	-0.774259
59	0x3f566880	0.83753204
60	0xbf3fa5c2	-0.748623
61	0xbf2c5c3a	-0.67328227
62	0x3f343174	0.7038796
63	0x3f48f431	0.78497607
64	0x3f10b654	0.5652821
65	0xbf5cd5d4	-0.86263776
66	0xbf4e85d9	-0.80672985
67	0xbf5276f5	-0.82212764
68	0xbf51892b	-0.81849927
69	0xbf3d9d42	-0.7406808
70	0x3f0cd992	0.55019486
71	0xbf4f1e1d	-0.80905324
72	0x3f291aee	0.66056716
73	0xbf458140	-0.77150345
74	0x3f286f05	0.657944
75	0xbf0c8c6d	-0.5490177
76	0xbf3e0fef	-0.7424306
77	0x3f2f05b9	0.6836811
78	0xbf39c76f	-0.72569937
79	0xbf4df397	-0.80449814
80	0xbf457407	-0.7713017
81	0xbf3e6075	-0.7436593
82	0x3f4b77f5	0.79479915
83	0xbf0f60bd	-0.56006986
84	0x3f324ee8	0.6965165
85	0x3f4a0110	0.7890787
86	0xbf3a1e65	-0.7270263
87	0x3f47783b	0.7791783
88	0x3f532232	0.8247405
89	0xbf574475	-0.8408883
90	0x3f303ed8	0.6884589
91	0xbf57efa8	-0.8435006
92	0x3f4a84aa	0.7910868
93	0xbf4d1257	-0.8010611
94	0x3f3b29bb	0.7311055
95	0x3f3eb050	0.7448778
96	0x3e8e9497	0.2784774
97	0x3f4f443b	0.80963486
98	0xbf32ad70	-0.69795895
99	0xbf22b616	-0.6355909
100	0xbf38cffd	-0.72192365
101	0x3f475af5	0.77873164
102	0xbeec850a	-0.4619525
103	0xbd8191af	-0.06326615
104	0x3f4b8d47	0.7951245
105	0x3f171a8d	0.5902489
106	0x3f476168	0.77883005
107	0xbf3f85fe	-0.7481383
108	0x3f1d05b9	0.6133686
109	0xbf3709d1	-0.71499354
110	0x3f538840	0.82629776
111	0xbf43ade2	-0.764372
112	0xbf54185a	-0.8284966
113	0x3f1ed80b	0.62048405
114	0x3f53434b	0.82524556
115	0x3f50d408	0.81573534
116	0x3f55ccaa	0.8351542
117	0x3f4cd88e	0.80017936
118	0xbf431f77	-0.76219887
119	0xbf4fd03b	-0.8117711
120	0xbf4b25a3	-0.79354304
121	0xbf50c56b	-0.81551236
122	0xbf278486	-0.6543659
123	0xbf56b182	-0.83864605
124	0xbf167853	-0.5877735
125	0x3ecb7e7b	0.39744934
126	0x3f094f4b	0.53636616
127	0xbf40ce55	-0.7531484
128	0x3f36dde6	0.7143234
129	0xbf467f92	-0.77538407
130	0xbf437089	-0.7634359
131	0xbf42232f	-0.75834936
132	0xbf478057	-0.77930206
133	0xbf26f4bf	-0.652172
134	0xbf543f04	-0.82908654
135	0xbf2851f4	-0.6575005
136	0xbf3c4736	-0.7354616
137	0x3f2a6e35	0.6657441
138	0xbf541112	-0.8283855
139	0x3f2be46a	0.6714541
140	0xbed7e780	-0.42168808
141	0x3db90bf6	0.090354845
142	0xbf49cccc	-0.7882812
143	0xbf4ebe88	-0.8075948
144	0x3f1e6dd3	0.6188633
145	0x3f15f6e3	0.58579844
146	0xbe55a5c2	-0.20864013
147	0xbc5b40b8	-0.013382129
148	0x3f4f4f1e	0.809801
149	0x3f3783c4	0.71685433
150	0xbf303796	-0.6883482
151	0xbf3bb11e	-0.73317134
152	0xbf4147a4	-0.7549994
153	0x3f4f0484	0.80866265
154	0x3f318d55	0.6935628
155	0xbf123cbd	-0.5712393
156	0xbf3526f4	-0.7076256
157	0x3f4211ff	0.7580871
158	0xbf41162a	-0.75424445
159	0xbf49ae37	-0.78781456
160	0xbf2e63b4	-0.68120885
161	0x3ee7f900	0.4530716
162	0xbf45bf4c	-0.7724502
163	0xbf401880	-0.75037384
164	0xbf3d55ac	-0.7395885
165	0xbf4c54f4	-0.7981713
166	0xbf44d6ba	-0.76890147
167	0xbe382e25	-0.17986353
168	0xbf377b83	-0.7167284
169	0x3f3fd590	0.74935246
170	0x3f3b6b21	0.7321034
171	0x3eb623bb	0.35574135
172	0xbf517a5b	-0.81827325
173	0xbf0ecedf	-0.5578441
174	0x3dd7ffdb	0.105468474
175	0xbf51f22b	-0.82010144
176	0xbf4c8038	-0.79883146
177	0xbf1bc63a	-0.60849345
178	0x3f47628d	0.7788475
179	0xbf557cd0	-0.83393574
180	0x3f4ceb7b	0.80046815
181	0xbe813ea0	-0.25243092
182	0x3f52a68b	0.82285374
183	0x3f24bfcb	0.6435515
184	0xbf197b85	-0.599541
185	0xbf420e23	-0.7580282
186	0xbf1bf67a	-0.6092297
187	0x3f2dbc94	0.6786587
188	0x3f475ebf	0.77878946
189	0x3eaa99fd	0.3332061
190	0xbf4cfb15	-0.8007062
191	0xbf4e6e65	-0.806372
192	0xbf42580d	-0.75915605
193	0xbed56564	-0.41678917
194	0x3eed9094	0.46399367
195	0xbf46132b	-0.77373
196	0xbf309b20	-0.689867
197	0x3f3606d5	0.71104175
198	0x3f387b09	0.72062737
199	0x3eece274	0.4626652
200	0x3f388c20	0.72088814
201	0xbf3e8b80	-0.7443161
202	0x3ef49e7a	0.47777158
203	0xbf1dca4d	-0.6163681
204	0xbda3ad0f	-0.07991993
205	0x3f407bbc	0.75188804
206	0xbf44d650	-0.76889515
207	0xbf389b3f	-0.72111887
208	0xbf13affb	-0.576904
209	0xbf46b298	-0.7761626
210	0xbf4bfddd	-0.7968424
211	0x3f3c5aa3	0.735758
212	0x3f3e3273	0.7429573
213	0x3ec9905d	0.39367953
214	0x3f2d7c49	0.6776777
215	0x3f395e5c	0.72409606
216	0x3f4e753f	0.80647653
217	0x3dda18bb	0.10649248
218	0x3ea8c015	0.32959047
219	0x3ec1f605	0.3788301
220	0xbf51a3bc	-0.81890464
221	0x3eaa833f	0.33303258
222	0xbe4f6371	-0.20252778
223	0x3f3fab29	0.74870545
224	0xbf3494d5	-0.705396
225	0xbf3cfe4c	-0.73825526
226	0xbf48c40c	-0.78424144
227	0xbf364f2b	-0.7121455
228	0x3f46e80d	0.7769783
229	0x3f1ed9ea	0.6205126
230	0x3eb23b08	0.34810662
231	0x3f38bc4c	0.7216232
232	0xbf00c48f	-0.50299925
233	0xbf3c12ca	-0.7346617
234	0x3eb1883d	0.34674254
235	0xbf1e0c81	-0.6173783
236	0x3f20ccf2	0.6281272
237	0x3f1643c4	0.5869715
238	0xbf4976d0	-0.7869692
239	0x3f10260b	0.5630805
240	0x3f1d889f	0.6153659
241	0x3f4c0010	0.79687595
242	0xbe92fa8d	-0.2870678
243	0xbf003354	-0.5007832
244	0x3f0bca2b	0.5460536
245	0x3f28d658	0.6595206
246	0xbf41cd4a	-0.7570387
247	0xbf3577ed	-0.7088612
248	0x3f1d3ca7	0.61420673
249	0x3f018ba3	0.50603694
250	0xbef0afa8	-0.47009015
251	0xbf3ac0dc	-0.7295053
252	0xbf42f262	-0.76151097
253	0xbf458622	-0.77157795
254	0x3f40342f	0.75079626
255	0xbebc9c18	-0.3683784

layer4.bias f4 [20]
0	0xbf48bd8e	-0.7841424
1	0xbf2bda1d	-0.6712969
2	0x3f492c0a	0.78582823
3	0xbf4b9af0	-0.7953329
4	0x3f4af7b5	0.7928422
5	0x3eb78248	0.35841584
6	0x3f254120	0.645525
7	0xbf2ee513	-0.6831829
8	0xbd1602c1	-0.03662372
9	0xbf486cb5	-0.78290874
10	0xbf508f03	-0.8146822
11	0xbf573f0a	-0.84080565
12	0x3f565447	0.8372235
13	0x3f502b25	0.81315833
14	0xbf528953	-0.8224079
15	0x3f466976	0.7750467
16	0x3f20370f	0.6258401
17	0x3f580bc4	0.8439295
18	0xbf505f1d	-0.8139513
19	0xbf5918ae	-0.84803283
